cnn_model.onnx (onnx, 671892 bytes, 10 tensors)

final_CNN/output_layer/MatMul/ReadVariableOp:0 f4 [64, 10]
00000000: 4558 86be fad5 c73d 02c2 8e3e ea1d 8ebe
00000010: 7ef6 a53d 34db 83be 808c 07bd 6775 b9be
00000020: 2e76 f43d a243 c43d d2c2 d73d 0087 873e
00000030: ab5f 04be 0f16 a9be 4466 9a3e b667 163c
00000040: 504c bb3d 0249 6fbe 891f 80bd 2611 973d
00000050: 73d6 c8be 9420 e9bd 8624 283e f770 d8be
00000060: 9a27 a93e 5901 cfbd 92b7 72be a6ec 693d
00000070: d28a 9e3e ce6d 48be 057b 38be 56f0 36be
00000080: d55e 993d d795 233e 957e 85be 2b69 853e
00000090: b18b 03bf c88d 1dbb 281c 1bbe fb3a 243d
000000a0: f4d7 78bc b261 8ebe 633f 683e 9e7b 88be
000000b0: a58a 53bd d305 7ebd 8a1f 343e 9aef 81be
000000c0: ab24 4c3d 6b50 ca3d 45ec a83e 1707 233e
000000d0: 7efe 95be e263 86be 51a4 9bbe 1f89 8abe
000000e0: ad1b bbbe d69c 0c3e f23b 4dbe c74e bdbd
000000f0: d9f6 b2be 4799 afbe 9eb5 3d3e 8a56 bbbe
00000100: 6b2d bb3d 92a9 97be b9f0 b03c 5d0b 2c3d
00000110: 92f5 4bbe 4b97 ebbe 6c49 87be 14e4 443e
00000120: ef32 fabc e9d6 093c 4f8e dc3a 1c4a 6c3e
00000130: 6cd1 88be 2005 b7be 4984 bebe 41cc 8f3d
00000140: 26d2 77be 9743 03be 242c b8be 811f b13e
00000150: a8b6 5d3e fd17 a9be 1fe2 293d fa24 973e
00000160: f43c a8be d51c 42bd 0476 67bd 294b 263e
00000170: 67b0 8ebe e328 cabe 7276 9dbd 7cdb 39be
00000180: eff4 2a3e abb4 76be 9ecd 7d3e 6d79 d8be
00000190: 9188 a33e aebd 84be fdfa afbe 3941 cabe
000001a0: 0842 fa3d b0c6 41be 97e4 93be de74 afbe
000001b0: 9a97 763e 0352 fc3d 15ca e8bd 22ef 91be
000001c0: d7aa 2dbe 47b2 803e 2ee2 28be 0742 ee3d
000001d0: 1422 95bd 06dd fdbe f8bc 99be e76d a9be
000001e0: 5c39 38bb 12db 84be f115 633e b56e 18be
000001f0: 5b88 873e bf96 7d3e b8ee 483e 5ce9 85be
00000200: 8959 db3d 5a0f 573e 942d b1be f7f1 a93d
00000210: dc60 113b ed0d 823d 57ff 7f3e 64d7 3c3d
00000220: 0d6e eabe 8d87 493e 9c18 78bd 1aeb 2f3e
00000230: abed abbe ec3c 30be 0477 e0bd 7045 8cbe
00000240: d1d5 653e 73d1 153e 0116 74be f275 283c
00000250: 8f4f 20be ac31 f5bd 3e57 a73e f5ac debc
00000260: d730 c0bc 8a11 80be dc93 c1be 9962 bfbd
00000270: 31df 3e3e bf79 2abe 067b 073e d540 cc3d
00000280: b48d 5ebe c572 ac3d efe9 f9bd 2711 933e
00000290: c53b d7bd a520 efbd ffc7 ef3d 5221 acbd
000002a0: 2299 833e 49d6 a13d 9a38 4a3d a252 873e
000002b0: 8e25 bdbd 4c96 a83e 2ce9 2ebe 636c f93d
000002c0: b66d aebd f9a6 693e 8bf5 3f3e 7dbd 813e
000002d0: f082 f0bd be2c bd3d 6f52 873d ba9d d2be
000002e0: 2908 73be 6d80 333e 332e 5e3d 8e7d 063e
000002f0: 44f2 b1be 3776 54be 3e65 9ebd 3a0f 34be
00000300: 2d97 5dbe 34d7 bdbe 99d5 5b3e 8d9d d53d
00000310: 60aa 4d3e 5181 233e 9dc7 13bd b1b0 9abe
00000320: 8e08 95bc d76c a6bc 132f ab3e 5fee 2c3d
00000330: 20e2 67be 270c 80be aa1e 9cbe bad8 063e
00000340: b122 dbbe ebd6 46be a495 8abd 5003 67be
00000350: b62a 333e ca16 fbbd ce82 293e 8c56 ecbe
00000360: ae0d 24be cf00 2f3e 8951 153b 80f3 4b3e
00000370: 3b41 a63a af96 84bd b03d 983e 271a 9f3e
00000380: cd5b c2be b235 cabe c2ca bbbe 2ad5 7a3d
00000390: 47cb 883e 0a7e f0bd f5d2 8bbe 3262 743e
000003a0: af5d 98be 4230 82bd d507 913e 6fed 69be
000003b0: df68 15be 819b 9bbe 262a 203d fb5a 083e
000003c0: c913 6cbe c83a 03bd 9014 5e3c 968f c6be
000003d0: 0d9e c2be d9a8 afbe 8081 96be c250 0f3e
000003e0: a686 21bd 3e53 23bd fab0 89be d0c4 e0be
000003f0: 39d5 89bc 7c67 36bd ea5b 0a3b a35b 88be
-0.2623922 0.0975761 0.2788239 -0.27757198 0.08103655 -0.25753176 -0.033092976 -0.36222383
0.119366035 0.095832124 0.10535206 0.26470184 -0.1292712 -0.33024642 0.30156147 0.00918
0.09145415 -0.23367694 -0.06256015 0.07376318 -0.39226112 -0.11383167 0.16420183 -0.42273685
0.33038026 -0.10107679 -0.23702839 0.05711045 0.30965286 -0.19573137 -0.18015678 -0.17865118
0.07488791 0.15975128 -0.26073137 0.260568 -0.5138503 -0.0024040807 -0.1514746 0.04009531
-0.015188206 -0.2780891 0.2268043 -0.26656812 -0.051645894 -0.062017273 0.17590156 -0.25378114
0.049839657 0.0987862 0.3299276 0.15920673 -0.29295725 -0.2624808 -0.303988 -0.2705774
-0.36544552 0.13731703 -0.20042399 -0.09243541 -0.34953955 -0.3429663 0.18526313 -0.36589462
0.09139522 -0.2962156 0.02159916 0.042003024 -0.19917896 -0.46013865 -0.26423204 0.1922763
-0.030541865 0.008413055 0.0016827079 0.23075145 -0.26722276 -0.35746098 -0.372103 0.0702138
-0.24201259 -0.12818752 -0.35971177 0.34594348 0.21651709 -0.33026114 0.04147541 0.29520398
-0.32859004 -0.047390778 -0.056509033 0.16239609 -0.2786896 -0.3948432 -0.07688607 -0.18150133
0.16694997 -0.24092357 0.24785468 -0.4228014 0.3194013 -0.25925964 -0.34371176 -0.39502886
0.12219626 -0.1892345 -0.28885338 -0.3426885 0.24081269 0.1232033 -0.11366669 -0.28502756
-0.16959701 0.25136015 -0.1649253 0.116336875 -0.072818905 -0.4958269 -0.30026984 -0.3309166
-0.002811036 -0.25948387 0.22176339 -0.14885981 0.26471218 0.24764536 0.19622314 -0.26154602
0.10710437 0.2100195 -0.34605086 0.08298104 0.0022182977 0.063503124 0.24999748 0.04610385
-0.45787087 0.19680615 -0.060570344 0.17179528 -0.33579764 -0.1721074 -0.109602004 -0.27396727
0.22444846 0.1463068 -0.23836519 0.010282027 -0.15655349 -0.11972365 0.32683748 -0.027182082
-0.023460789 -0.2501338 -0.3780812 -0.09344978 0.18639828 -0.16648005 0.13230523 0.09973303
-0.21733743 0.08420328 -0.122028224 0.28724024 -0.10509447 -0.11676148 0.11708068 -0.08404793
0.2570277 0.079022 0.049370386 0.2643023 -0.092356786 0.32927167 -0.17081136 0.12178876
-0.085170195 0.22817601 0.18746011 0.2533988 -0.11743724 0.092370495 0.0660752 -0.4113596
-0.23733582 0.1752946 0.054243278 0.13133833 -0.34755147 -0.2074822 -0.07734154 -0.17583933
-0.216397 -0.3707825 0.214682 0.10430441 0.20084524 0.15967299 -0.036079038 -0.3021293
-0.018192556 -0.02031557 0.33434352 0.042219516 -0.22644854 -0.25009272 -0.30492145 0.13168612
-0.42799905 -0.19417922 -0.06766823 -0.22559857 0.17496762 -0.12260206 0.16553804 -0.4615978
-0.16020843 0.17090152 0.0022784194 0.19917107 0.0012684235 -0.06474053 0.29734564 0.3107464
-0.37960663 -0.3949409 -0.3667813 0.061238445 0.26717588 -0.1174279 -0.27309385 0.23865584
-0.29758975 -0.06356861 0.28326288 -0.2284448 -0.14590786 -0.30392078 0.039102696 0.13315956
-0.23054422 -0.03203848 0.013554707 -0.38781422 -0.38011208 -0.34308508 -0.29395676 0.1399565
-0.03943505 -0.039874308 -0.26892835 -0.43900156 -0.016825305 -0.044532284 0.0021111914 -0.26632413

final_CNN/output_layer/BiasAdd/ReadVariableOp:0 f4 [10]
00000000: a6b5 29bc 0345 03bd 58b1 61bd 81e5 243d
00000010: 8e06 2dbc 1906 bbbc 345c 41bd b344 1cbd
00000020: 0674 273d 45e8 62bc
-0.01035825 -0.032048237 -0.05510077 0.040257934 -0.010560645 -0.022830056 -0.047207072 -0.038151454
0.040882133 -0.013849323

final_CNN/dense/MatMul/ReadVariableOp:0 f4 [1152, 64]
00000000: 84cc 06bd 710b 00be 6868 623c afeb 0d3e
00000010: 3173 fabc 4cb4 2dbc d7ef 98bc c5dd e4bd
00000020: 26ad 9e3d fb92 1f3d 989a babc c2d3 7f3d
00000030: 51c1 863c a03c a43d f4c9 95bc 902f d9bd
00000040: 1a9e d6bc a45f 313d e91a a8bc 9ab8 ad3b
00000050: e2bc faba 3c43 83bd 0c8f 8d3d e6f0 c0bd
00000060: 0621 8f3c d84b 233d 221e ac3d f6c3 903c
00000070: a6c0 e9bc 18e1 a63c 3d96 503d 3479 19bc
00000080: ed65 f6bc fa97 04bd 7a51 c73d 6883 1f3d
00000090: 0d7d 4f3d 9967 123d 9948 c53d 1522 013e
000000a0: 873d 89bd 471c f43c 3fd3 acbd 5e6f 56bd
000000b0: ffe4 19bd cb2f b93c fd33 473d 5e84 0a3d
000000c0: 7527 913c bb04 793d fc7c 3a3d 7337 a73d
000000d0: ab3d 873d 7347 3b3d 88b1 933c 78a1 0cbd
000000e0: 2db3 a4bc cea5 09bd 0e68 43bd 84b9 1bbe
000000f0: 7d6d c6bd f4a2 ce3c c874 cc3d dd2a 06bc
00000100: 39ba b53d 1c3f a73c fceb fc3c fe4c c93d
00000110: b54a 84bd 976b 03bd 8a44 29bd 791c d03c
00000120: 0d8b aabd 1c78 ffbc cad5 de3d 2560 e63b
00000130: bb3a f33a 5f15 cf3d 7e74 023d 7e54 89bb
00000140: 46ac 7abd 0caf dabd bf35 183b ab83 533d
00000150: 62a1 4ebd 1919 1b3d b540 cdbd 2342 e33d
00000160: 9cbb 06bc c546 04bd 0a4d 5f3b 88cd 1c3c
00000170: 6096 983d 0f73 6c3d c776 c83c 2fb8 ca3d
00000180: d8db 483d f476 b53d ce9f 823d c373 40be
00000190: 60bd c93c 6bb4 d9bd 6f36 583b 60cb 023d
000001a0: 8f42 303d 1f73 4b3d 5acc c5ba a580 08bd
000001b0: a920 71bd df92 823c 200f 75bc c46b a83d
000001c0: b51a a5bc d036 953d de6f 963c 85ed b43d
000001d0: f9f1 533d 8117 883c d0d7 8ebd 1ce8 9bbd
000001e0: b2e2 ec3d f94f 393d 9944 943c f4df 113d
000001f0: 5647 abbb d751 10bd 0295 b63d 9232 ccbd
00000200: 2eaf 8abd d267 f93c 64c7 553d 9827 b3bc
00000210: 8773 113d 1ee1 f33b 7d22 6cbd ae65 bdbd
00000220: dca9 243c 7c9b c6bb 3665 e0bb 1f0f e83c
00000230: 92f8 6fbd 38aa 7abc ec36 d8bc d9bf c4bc
00000240: 21a7 8abd 74a7 a1ba 81d7 ea3b b3d4 de3a
00000250: 9a5f 18bc 1836 d53c c538 b4bb 2855 a13b
00000260: 3438 5d3d 60bb be3d bee1 e8bc 583b 123d
00000270: 49c7 863d 007e 4fbd cf9e 1cbd 4d63 83bd
00000280: 7cba 10bd a4b1 b23a 753c 33bc 5369 093e
00000290: 6656 ba3d 85e7 623d 28c5 51bc 32b6 0e3e
000002a0: 8241 23bd d050 8c3c 7482 a83d 1211 953d
000002b0: b493 cdbd 9502 883d 0c9c c83d 272f f1bc
000002c0: ae93 21bd 56d4 33bc 97f5 56bd f94f c83d
000002d0: b3e9 9c3d 15fc 093d 26d8 ad3d b4c1 a2bc
000002e0: c6c5 4e3b 1353 a5bd bdaa 98bd 1f69 0e3c
000002f0: 29bc 14bb b658 85bd 5642 b6bb 3b55 87bc
00000300: bddf 4ebd c5bd 4cbd 824a 593d 4835 1d3d
00000310: e3d7 0a3d e0c0 6d3b 52db 35bd 5679 1b3c
00000320: 39ba 5cbd 9f1b 56bc 5260 a23d 98ab a1bd
00000330: 06b3 77bc 2c59 073e 5cfd 85bd b82a 173d
00000340: a640 993d b5c3 533d 9e74 413d 319b 12bd
00000350: 7389 abbd f589 b23d 3113 273d ac95 0fbc
00000360: f815 113d add7 e5bb 91da 703d b0e7 59bd
00000370: 1024 d43d 239e d1bd ebd6 6bbd c89a 8d3d
00000380: d622 aebb 4482 083b e1e2 fe3d 0d16 26bb
00000390: 5e01 303d 36ba 95bd 2e0f 4e3d 2001 743b
000003a0: 0768 0cbc b52a 613d 6383 cbbd 73c2 2fbc
000003b0: 7aa6 55bd ff49 a3bb a735 a4bc 0cba 98bc
000003c0: 294e 31bd 0d0e 2e3e 9eec 9ebc 459b 123c
000003d0: a7f6 133c fa8b 97bc 1299 abbd 6bb4 e8bd
000003e0: f610 ae3b c0e8 9a3d f917 01bd e80d f1bc
000003f0: d06d 02bd db92 94bd eec2 bdba d0b0 a23c
-0.032909885 -0.12504365 0.013818838 0.13859437 -0.030572506 -0.010602068 -0.018669052 -0.11175112
0.07747869 0.03895853 -0.022778794 0.062457807 0.016449602 0.08019376 -0.018284775 -0.10604775
-0.026198436 0.0433041 -0.020520644 0.0053015472 -0.0019129778 -0.06409308 0.0691205 -0.09420948
0.017471801 0.039867252 0.08404185 0.017671566 -0.028534245 0.020371005 0.05092453 -0.009367276
-0.030077899 -0.0323715 0.09732337 0.03894368 0.050656367 0.03574333 0.096329875 0.12610658
-0.067011885 0.02979864 -0.084387295 -0.0523523 -0.037571903 0.022605797 0.048633564 0.03381764
0.01771901 0.060795527 0.04552935 0.08164873 0.06603559 0.045722436 0.01802899 -0.034333676
-0.020104969 -0.03360539 -0.047706656 -0.15207487 -0.09688852 0.025224186 0.09983212 -0.00818893
0.0887341 0.020415835 0.030874245 0.09829138 -0.06459562 -0.032085028 -0.04132513 0.025404202
-0.08327303 -0.031185202 0.10880621 0.0070305043 0.0018556932 0.10111498 0.031849377 -0.0041909805
-0.06119945 -0.10677919 0.0023225395 0.05163924 -0.050446875 0.037865732 -0.100221075 0.11096599
-0.0082234405 -0.032294054 0.0034073018 0.009570487 0.07450557 0.057726916 0.0244707 0.098984115
0.049037784 0.08860579 0.063781366 -0.1879416 0.024626434 -0.10630115 0.003299143 0.031932235
0.043032225 0.049670335 -0.0015090809 -0.03332581 -0.058869038 0.015939174 -0.014957219 0.0822368
-0.020154336 0.07285845 0.01836389 0.08834366 0.051744435 0.01661277 -0.06974757 -0.07612631
0.11566676 0.045242283 0.018099116 0.03561397 -0.0052270098 -0.0352343 0.0891514 -0.09970583
-0.06771694 0.030445013 0.052192107 -0.021869466 0.035510566 0.0074426075 -0.057650078 -0.092479095
0.010050263 -0.0060610157 -0.006848003 0.028327523 -0.058586664 -0.015299372 -0.026393376 -0.024017261
-0.067701586 -0.001233323 0.0071668033 0.0017000645 -0.009300137 0.02602677 -0.0054999315 0.0049234815
0.054008678 0.09313083 -0.028427955 0.035701126 0.065809794 -0.050657272 -0.03823739 -0.064154245
-0.035334095 0.0013633263 -0.010939707 0.13419084 0.090985104 0.055396575 -0.012803353 0.1393669
-0.039857395 0.017128378 0.08228007 0.072786465 -0.10037938 0.066411175 0.097953886 -0.02944143
-0.03944748 -0.010975918 -0.052480306 0.097808786 0.07661762 0.03368767 0.08488493 -0.019867755
0.0031550988 -0.08072486 -0.07454441 0.008692055 -0.002269516 -0.06511061 -0.005562107 -0.016520133
-0.050506342 -0.049985666 0.05304957 0.03838089 0.033897292 0.0036278293 -0.044398613 0.009489378
-0.053888533 -0.013068109 0.07928528 -0.07894057 -0.015118366 0.1321761 -0.06542465 0.036905974
0.07483034 0.051700313 0.047230355 -0.035792533 -0.08375826 0.087177195 0.040789787 -0.008763712
0.03542134 -0.007014236 0.05880219 -0.05319947 0.10358441 -0.1023524 -0.05757801 0.06914288
-0.0053142114 0.0020829597 0.124456175 -0.0025342733 0.042970054 -0.073109075 0.050307445 0.0037232116
-0.008569724 0.05497237 -0.099371694 -0.010727513 -0.052160718 -0.0049831863 -0.020045115 -0.018643402
-0.04328743 0.16997547 -0.019399937 0.008948152 0.0090309745 -0.018499363 -0.08378805 -0.11362537
0.0053120805 0.07563925 -0.031517003 -0.029425576 -0.031843007 -0.07254573 -0.0014477649 0.019859701

final_CNN/dense/BiasAdd/ReadVariableOp:0 f4 [64]
00000000: 748d e1bb 9cd0 953c 51ec f53c dd3e f63c
00000010: 15ca 26bb 702b 97bc d202 10bd 26ba 52bc
00000020: 8166 e33b 9c99 dd3c bdaf cf3c 3e07 db3c
00000030: fcd3 0fbb e24b 223d 701b 923b 6816 f3bc
00000040: 6521 113d 2c7f 233d db41 2ebd c957 58bc
00000050: 5015 93bc b3ae 33bc aae9 e63c d7f5 d73b
00000060: 90cd 92bc 855b 34bd d00d 7fbc 6c61 023c
00000070: c937 35bd 65c9 e8bc 5e45 8fbb d7c6 cabc
00000080: 98d8 2db9 a6f0 7abb 2aff 853c 8bb5 053c
00000090: ee67 dbbc 99ff 163d 6ec4 56bb aa0c 213d
000000a0: 3d93 653d 6598 63bc 8050 7b3c 0e9f 153b
000000b0: 371f e23a 93ad b6bc c5e9 09bd 8a2c afbc
000000c0: 269b bb3c 07e9 923c a5d3 adbc b341 0f3d
000000d0: 324f 963c 2cd8 90bc 48b7 643d 525d a43c
000000e0: f801 133c 8d9f 263d 84fe 58bc 33ce d0bc
000000f0: 7dad 92bc 12a5 18bc 8213 243d c7ae 963c
-0.0068833176 0.01828795 0.030019911 0.030059272 -0.002545004 -0.01845333 -0.03515894 -0.012861764
0.0069397097 0.027050786 0.025352353 0.026736852 -0.002194642 0.03962315 0.004458837 -0.02967377
0.035432238 0.039916202 -0.042543273 -0.013204523 -0.017954499 -0.0109669445 0.028187592 0.0065905857
-0.017920285 -0.044032592 -0.015567258 0.0079577975 -0.044242654 -0.028416345 -0.004372283 -0.024753017
-0.00016579253 -0.003829041 0.016357023 0.008160959 -0.026782956 0.03686485 -0.003277089 0.039318718
0.05604862 -0.013891314 0.015339017 0.00228304 0.0017251734 -0.022299564 -0.033670206 -0.021383543
0.022901129 0.017933382 -0.021219084 0.034974765 0.01834831 -0.017681204 0.055838853 0.02006403
0.008972637 0.040679503 -0.013244275 -0.025488948 -0.017904991 -0.0093167 0.040057667 0.018393887

final_CNN/conv_layer_3/Conv2D/ReadVariableOp:0 f4 [128, 64, 3, 3]
00000000: dd3c 6ebc b1f6 da3c bff0 15be 0587 763c
00000010: 68c4 15bd e5e6 b7bd bb7b 4abc fe15 063b
00000020: 6712 a0bc 306f 97bd 51b0 a1bc e602 74bc
00000030: 3087 91bc 816e 7abd 93cb ac3c 8f81 a2bd
00000040: 651a eb3c ec4d 2cbd f50c 85bd 394a b73d
00000050: 2382 1bbd 4580 f6bc a0bb 523c 68b4 1c3b
00000060: d7fb cabd cda4 393a ca7b 53bd 7343 a2bc
00000070: 4a6e ba3d c864 24bd ef8f 7cbd 0509 ea3c
00000080: 83ea b2bc 06a0 73bd cb9a 18bd 7e3b 9bbc
00000090: 1266 efbd 8a46 a3bd 7ffc 6dbd 23b7 32bc
000000a0: bbdf a1bd 900d 9cbd c7d1 e5bc 48ca 1f3a
000000b0: b321 31bd 9046 213d 94b0 75bd 618d 13be
000000c0: 3fb9 84bb f561 ba3d 01ba 0e3e ef62 153d
000000d0: 1cb6 053d 3ef0 463d bc71 37bd 36a0 b2bd
000000e0: 6054 35bd be50 65bc 9ab7 8f3c 930b 023d
000000f0: a70d e43c b276 393d e642 f1bb 1018 703d
00000100: ff29 133d e2f5 a83d 15e4 80bc 3d7e aebb
00000110: dba5 07bd c94f c3bd d87e efbd 84ea 0dbd
00000120: 4aa8 0cba 5568 f7bd 89df bebd 6a0d 1f3c
00000130: 5095 f23b 7c96 25bd e8a4 96bc d76f 813d
00000140: 08b6 f8bc a822 aa3d b185 9b3c ddfb 9d3d
00000150: a99d 81bc 9171 2cbd 24c0 1bbc f06f b3bd
00000160: 98c6 41bd 74f0 e3bc 87dc bbbd 50d5 0ebe
00000170: f823 843c 3ede 1b3d edd9 79bc 0eb3 c3bc
00000180: ed79 13bd a73c 0e3d 3676 a83d e7c6 81bd
00000190: c13d a8bd 5675 16be 2d45 303c c29a 22bd
000001a0: a356 7dbc 58c4 4c3d 9078 f4bc b401 423c
000001b0: ece0 16bc f1f8 c4bd 9367 94bd b667 773d
000001c0: ad57 33bc b24d bdbc b68f 9fbc 5371 5fbd
000001d0: 3d35 a8bc ced8 543d db82 4fbd 9c28 84bd
000001e0: f698 1fbd e581 623d 34f6 763d 4e52 fd3c
000001f0: bf9c 7cbd 00c3 10bd 0c06 91bd 9155 fbbc
00000200: 57b8 95bc b35b fb3c dfb4 6dbd 831f 8ebc
00000210: cfe7 65bc a3f4 913d 4772 3ebd 4956 a23c
00000220: 4b03 13bb 6a67 71bd 080c 7dbb ff5a 033e
00000230: 5598 97bc 44c2 673d 2778 863c 9e17 1a3d
00000240: 693e 913d 9dc2 30bc 93e7 dc3d 2966 2d3d
00000250: d466 9dbd f320 80bd a393 b0bd 6514 babc
00000260: 91fa cdbc cf0c 88bd cf2a c5bb 476c 0bbb
00000270: 5a2a e43c 4eda cabc ab05 afbc fd25 b63c
00000280: 7f20 12bd 94c6 cabd 510a 4dbd 9828 ddbc
00000290: 9731 efbd 6634 15bd 5374 5f3c 1bdd a43c
000002a0: 71f4 6c3c 446b e83c 643c 81bd de58 b3bd
000002b0: 9b45 06bc e11d b9bc e5a2 4fbd 5d0a 2bbd
000002c0: c76c 5b3b 23ba 193d 6ad5 8ebc 8b4b aabb
000002d0: 777a e13d 2729 41bd 7268 473d b6f9 fe3c
000002e0: 7305 2bbd dc5c 183b 93c9 17be d6d8 1a3d
000002f0: 0e76 a6bd 117a 83bd aa19 f2bd ef92 a13c
00000300: 7ef0 96bd dea8 e9bd 5af3 1ebc e447 1cbd
00000310: f22b 093d 82a2 6ebd 88da 2cbe 65d6 3fbb
00000320: 47aa d5bd f35b 1a3d ccb6 b53d 10d6 08bd
00000330: 5c5e 923d f960 b53d 1fe6 3fbd 626b a33c
00000340: ff08 00bd 208e febb e2e0 c63a af56 6fbc
00000350: 991d 48bc 7eb7 f13b f2fa 513d 2084 dbbc
00000360: 2ed8 21bd 179d cdbc 3644 933d e993 12bd
00000370: b21c 33bd 6d93 a33b 136e c3bc 18c0 4a3c
00000380: e072 f73c 894f b1bc 8106 b3bc 413f 07be
00000390: 1592 45bd 1a37 5bbb 0c80 47bc 71ee d43b
000003a0: 2383 edbb 9e68 bcbc b389 c0bc d2f8 75bd
000003b0: 9700 73ba 363d 8ebc fb04 b7bc bf16 a9bc
000003c0: 71ee 9bbd 8a05 6e3c a2ee c6bd 6b7e d73b
000003d0: 95e2 0abd 497b 2fbe d018 29bc 2cd7 99bd
000003e0: 197e babd 2178 c73b f43e 0fbd 8464 56bd
000003f0: 794b d3bc 618c 5b3d 446f bc3c a414 203d
-0.014540878 0.02672896 -0.14642619 0.01504684 -0.03656426 -0.089795865 -0.012358601 0.0020459886
-0.019540025 -0.07394254 -0.019737395 -0.014893269 -0.017764658 -0.06114054 0.021093166 -0.079348676
0.02869911 -0.0420665 -0.06496612 0.08949704 -0.037965905 -0.03009046 0.012862116 0.0023911241
-0.09911316 0.0007081747 -0.051631726 -0.019807553 0.09103067 -0.040135175 -0.061660703 0.028568754
-0.02184034 -0.059478782 -0.037256997 -0.018949267 -0.1168939 -0.07972439 -0.058102127 -0.010907921
-0.07904001 -0.07619774 -0.028054131 0.0006095511 -0.04324503 0.039373934 -0.05998285 -0.144094
-0.0040504034 0.09100715 0.13938142 0.036471304 0.032644376 0.048568957 -0.0447862 -0.08721964
-0.04426992 -0.013996301 0.017543603 0.03174932 0.027838541 0.045279212 -0.0073627112 0.058616698
0.035928722 0.082500234 -0.015733758 -0.0053251074 -0.033117156 -0.09536702 -0.116941154 -0.03464748
-0.0005365653 -0.12080447 -0.0931998 0.009707788 0.0074030533 -0.040426716 -0.01838918 0.0632016
-0.030360237 0.083073914 0.018984647 0.07714055 -0.015822249 -0.042100493 -0.009506259 -0.08761585
-0.047308534 -0.027824618 -0.09172922 -0.1394856 0.016130432 0.038053744 -0.015249711 -0.02388909
-0.03600495 0.03472581 0.08225672 -0.06336766 -0.082149036 -0.14693198 0.01075868 -0.03969837
-0.01546255 0.049991935 -0.029842645 0.011841226 -0.009208899 -0.09617794 -0.07246318 0.06040164
-0.0109461965 -0.023108337 -0.019477706 -0.054551434 -0.020533198 0.051964574 -0.050661903 -0.06453058
-0.038964234 0.05529966 0.06029339 0.030923035 -0.061672922 -0.035342216 -0.070812315 -0.03068045
-0.018276377 0.030683374 -0.05803382 -0.01734901 -0.014032318 0.07126739 -0.046495702 0.019816535
-0.0022432383 -0.058936514 -0.0038611908 0.12827681 -0.018505255 0.05658175 0.016414715 0.03762018
0.07091982 -0.010788587 0.10786357 0.042333756 -0.076856285 -0.062562846 -0.086219095 -0.022714803
-0.025143893 -0.06643068 -0.006017066 -0.0021274255 0.027852226 -0.024762299 -0.021365007 0.022234911
-0.035675522 -0.09901157 -0.050058667 -0.026996896 -0.116793804 -0.036426924 0.013638574 0.020124963
0.014462576 0.02837146 -0.06310347 -0.087571844 -0.008195306 -0.022597255 -0.050692458 -0.04175793
0.0033481584 0.03753103 -0.017435748 -0.0051969937 0.110096864 -0.047158387 0.04868359 0.03112493
-0.041753244 0.0023248708 -0.14822988 0.037804447 -0.08127986 -0.06419767 -0.11821301 0.019723384
-0.07370089 -0.11409162 -0.009701574 -0.038154498 0.033489175 -0.05826045 -0.16880238 -0.0029272076
-0.104328685 0.037685346 0.08872756 -0.03340727 0.07146904 0.08856387 -0.04685032 0.019948665
-0.03125858 -0.0077684075 0.0015173221 -0.014608069 -0.012214088 0.0073766103 0.05126471 -0.0267964
-0.039512806 -0.02509932 0.071907446 -0.03578559 -0.043728538 0.0049919398 -0.023856198 0.0123749
0.030206144 -0.02164437 -0.021853687 -0.13207723 -0.048235018 -0.003344959 -0.012176525 0.006498151
-0.0072482987 -0.022999104 -0.02350316 -0.060051747 -0.0009269802 -0.017363172 -0.022341242 -0.020640729
-0.076138385 0.014527688 -0.09713484 0.0065763495 -0.03390749 -0.17136873 -0.010320857 -0.07511744
-0.091060825 0.0060873185 -0.034972146 -0.052341953 -0.025792824 0.053600673 0.023002274 0.039082184

final_CNN/conv_layer_3/BiasAdd/ReadVariableOp:0 f4 [128]
00000000: c9f6 34bd 57c3 a3bc cc96 5abc 942d 43bc
00000010: a8e7 b13c 6066 e9b7 472c a73a 516e 0f3b
00000020: 024c 1fbc e214 ba3c bd1c ecba 2641 bcbb
00000030: 3d0d 663c 59ba 11bd b9e0 c2bc 6da8 cebc
00000040: e681 e23a 8e10 c7ba 9567 f9bb a7b3 acbc
00000050: 8652 0fbd 7d5f 93bc becf 003b b27a 1abd
00000060: 4011 4ebc 113d c9bc 5ca2 5439 f1ee 1cbc
00000070: a24a eabc 5a2b 32bc 16ab 22bd 1962 413a
00000080: 66cd 2bbc 10f6 9bbc bbfb b0bc 47e5 abbc
00000090: 6641 36bd c8ba 56bc bb4c 4ebc 4c6d 1639
000000a0: 902a f7bc 4f9d b9bc bbc6 343a a7d5 69bc
000000b0: b0ca 3abc 341f 6ebd 0f7d 01bc 13a0 8a3d
000000c0: 117d d73c d80a c5bc 78c9 b0bc 1f6f f4bc
000000d0: 56a0 e9bc 75cf 9e3c 2d1b f43c bf56 04bc
000000e0: a429 e7ba b967 983b afd4 cbbc 13f0 03bd
000000f0: ed0f fabb fc85 e03b cf67 ccbc e768 c33b
00000100: f178 b0bc 1351 c6bc a8b8 bfbc ece9 c2bc
00000110: 0c97 f3bc 7a0a 993b 28b1 5939 289a 02bd
00000120: 1ca0 fd3b 32db f43c 547d 98bc 1013 0ebd
00000130: f426 91ba 7215 993b 8909 febb f8df 13bd
00000140: 47f2 88bb fb43 11bd 17b5 94bc b136 aebc
00000150: a901 25bc 7350 5bba adb4 913c c091 86bc
00000160: 6556 b3ba 24ed 88bc aba3 1c38 8368 06bd
00000170: 1f27 ba3c ec5d d33c 159b e5bc ec7e dfbc
00000180: 61ae 343c d222 1d3c 35fe a0bc f969 e9bb
00000190: 1e7d fabc 92a8 e8bc 9087 d23c 86d9 92bb
000001a0: b97d 99bb 2a95 debc 46ab cabc f46e 87bc
000001b0: 1726 cdbc 56d3 c3bb 5fb2 40bc 572a 52bd
000001c0: 5259 203d cabf b73b 18d1 2cbb 1efd 36bd
000001d0: 5be6 283b 0f22 d8bc 82c9 b8bb a785 c5bc
000001e0: 5b5b 9dbb d0be 1eba f216 78ba d990 9fbc
000001f0: 34d7 a0bc 41eb 0a3a 5e3d 483c ef02 f1bc
-0.044180665 -0.019990606 -0.013341617 -0.011912722 0.021716908 -2.7823437e-05 0.0012754285 0.0021885822
-0.0097227115 0.022715036 -0.0018013936 -0.005745071 0.014041242 -0.035578106 -0.023788797 -0.025226796
0.0017281144 -0.0015187429 -0.007611225 -0.021081759 -0.03499081 -0.017989868 0.0019655074 -0.037714668
-0.012577355 -0.024565252 0.00020278379 -0.009578452 -0.02860004 -0.010874594 -0.03971394 0.00073769834
-0.0104859825 -0.01903823 -0.02160441 -0.020983351 -0.044495963 -0.013106056 -0.012591536 0.00014345831
-0.030171663 -0.022658018 0.0006896068 -0.01427213 -0.0114008635 -0.058135226 -0.007903351 0.06768813
0.026304753 -0.024053022 -0.021580443 -0.029838143 -0.028518837 0.019386033 0.029798115 -0.0080773225
-0.0017636311 0.0046510366 -0.024881689 -0.032211374 -0.007631293 0.0068519097 -0.024951844 0.005963433
-0.021542044 -0.024208581 -0.02340348 -0.023793183 -0.02973511 0.0046704384 0.00020760729 -0.031885296
0.007740034 0.029889677 -0.018614449 -0.03468615 -0.0011074231 0.004671746 -0.0077526015 -0.036102265
-0.0041792723 -0.03546522 -0.018152757 -0.021266313 -0.010071197 -0.0008366175 0.017786348 -0.01642692
-0.0013682364 -0.01671464 3.7345726e-05 -0.032814514 0.022723733 0.025801621 -0.02802805 -0.0272822
0.011027903 0.009590821 -0.019652465 -0.0071232286 -0.030577239 -0.028400693 0.025699407 -0.004481497
-0.0046841768 -0.027170736 -0.024739873 -0.016532399 -0.025042577 -0.005976121 -0.011761277 -0.05130991
0.039147682 0.00560758 -0.0026369747 -0.044674985 0.0025772068 -0.026383428 -0.005639256 -0.024111582
-0.00480215 -0.0006055655 -0.00094638683 -0.019478248 -0.019633867 0.0005299338 0.012221662 -0.029420344

final_CNN/conv_layer_2/Conv2D/ReadVariableOp:0 f4 [64, 32, 3, 3]
00000000: 3670 533d 60ec f4bc a3c1 96bd a643 a3bd
00000010: 006a 53b9 a634 0a3d 0064 1cbc 9bb4 67bd
00000020: 6093 333b f64a 1b3c cf91 02be 9bcf 793d
00000030: 7072 093b 1ac6 0fbe 8836 23bd 2f35 703c
00000040: 6f7e 50bd 68f0 5f3c bad1 b9bc 3711 04be
00000050: 4404 713d 07d4 463d 1449 c2bd 487a 8a3c
00000060: a3b5 52bd 0cb0 613d 8c27 853d de1d 6fbd
00000070: 7f8e e2bd 56f4 bebd 94b0 0dbd f6d7 0dbe
00000080: 4ae5 09be 019c 78bc beea 84bc 0e41 58bd
00000090: 09b9 74bd 5790 48bd cf6e d5bc 9890 c73d
000000a0: 5e37 f63b 0a34 9bbd 2bd9 11bd 66da e5bd
000000b0: 31bb a3bd 91b9 e13c 8a79 62bd 7598 193c
000000c0: f66d f63b 086c 0cbd 4eb8 a63c a15a 21bc
000000d0: 3597 a03d c870 f1bd 26ed 01be e2fc b8bd
000000e0: e079 5d3d c874 23b9 dbdb 713c 3feb af3b
000000f0: 6d29 b0bd cdec 6fbb c26e 443b ebab 863c
00000100: b83b c7bd d648 35bd ca93 59bb 8118 be3d
00000110: c89d b73d 1715 753d 95ea 693d 8077 ab3d
00000120: 35b5 9ebd 9016 6dbd 1dc4 ea3c 3288 f2bd
00000130: ba2f 3d3c 64d7 ad3d 0b2d c5bd a319 f3bc
00000140: d1ff 00bd cbe0 84bc 6164 233c 4d9d d23d
00000150: ddfc 823c 1315 9d3d ce83 843d 69ac 17bd
00000160: bf35 8f3d 75ff ebbd f6db 8d3d c780 a7ba
00000170: 3864 533d 95f5 99bd 7eaa 793c 8267 b83d
00000180: 6878 ebbd 9eae 1abd fd9a 0fbd ca67 103b
00000190: 3bcb 12be 3984 6b3d 7bd4 e4bd 6c56 d5bc
000001a0: e9b6 12bd 6003 68bd 3e2f efbb 7df7 003d
000001b0: 6685 1d3d c4cd 87bc 5b2d 973d c0bd 67bd
000001c0: 5ad3 0fbd b0e9 fe3d f4d7 bcbd f5ba fc3c
000001d0: 9861 1a3d 1de0 5cbd df6f 8bbd 24b2 a4bc
000001e0: a98d 80bc 0c40 123d c80e a0bd 9587 fdbc
000001f0: e3af 85bd 2de4 28bd 1659 1b3d cd52 9ebc
00000200: 3887 0f3c ce62 ba3b 87f1 efbb 5f9e c83c
00000210: 9c85 d73d c287 aa3d a5c7 22bd f22c c1bd
00000220: 5166 4c3b 3b13 003e 41a0 28be d086 18bd
00000230: 5ae6 c33d 4544 e23c 9af2 a73d 1136 923d
00000240: 1c65 bcbd c80f 15bd cba8 803d 6377 29bd
00000250: ac48 193c f60e c53d 86fc d9bd 4762 533d
00000260: c781 a03c b6cd 473d 61df bdbc ce81 94bd
00000270: d298 6bbd 9f8f 02bd db1d 84bd 252a 9ebd
00000280: 0ee7 073b d82a 01be 3d86 333d c54d 8c3c
00000290: 66ba 9bbd 9a2d ed3c 5d40 afbd 680e a7bd
000002a0: bca1 4fbc ae60 56bd 9e63 a83c 188f a0bc
000002b0: 3e03 ab3d 1cf7 c63c 1410 363d 7ba1 1fbd
000002c0: c6dd 88bd f812 9d3d e94b 2c3d 5057 f43c
000002d0: 25ef c13d bf70 0bbe 366d c4bd 2048 08bd
000002e0: d9e0 1dbc 75eb d2bd 9333 02be 03b5 1ebd
000002f0: c877 9a3c d125 4e3c b6a4 913b fea8 cdbb
00000300: 12e5 823d 6e59 efbc c862 81bd 77f6 663a
00000310: 3aa6 15bb 629e 8fbd 42f2 213d 0098 913d
00000320: 530f 1ebe 26a7 043e 8050 d9bd 8c5f 1dbe
00000330: 3123 56bd 8173 7abb 60d2 63bb 9c6c bd3b
00000340: 493d 873d 3a72 f0bd 9e4d cd3d 04e6 c63c
00000350: ef6a bbbc 6cc3 74bd 484a 94bd 7043 363d
00000360: 0ff9 7c3d 018c f7bc 9850 4fbd 4c51 6fbd
00000370: e66b 87bd 9be1 833d 524e cbbd d617 40bd
00000380: 3c5b ac3d c805 3abd 8b5e 613d c1ff 6d3d
00000390: 961f aebd 5129 b43d 1943 883d 0afc aa3d
000003a0: 3d25 ac3d 366e a73c 38ac 5d3d da6d 03bd
000003b0: 8aef e93c ff11 a63c da38 80bd 77dc 8b3c
000003c0: 3506 063d 6c5d e2bc 5a36 683c cc5a d33d
000003d0: f99b 4dbe da89 9cbd 0719 113d 9ebe dfbd
000003e0: 25c1 5c3b a99d f4bd 8c95 80bd 62e8 9b3c
000003f0: 1f89 183d 2b7a 9fbd abdd 753d 0d08 d9bd
0.051620685 -0.029897869 -0.07361152 -0.07971887 -0.00020162016 0.033741616 -0.009545326 -0.056568723
0.0027401075 0.009478321 -0.12750934 0.060989004 0.002097275 -0.14040413 -0.039846927 0.014661117
-0.050901826 0.013668157 -0.022683013 -0.12897192 0.05884196 0.04854205 -0.09486595 0.016904011
-0.051442754 0.055099532 0.065016836 -0.058378093 -0.11062335 -0.09323947 -0.034592226 -0.13851914
-0.13466373 -0.015173913 -0.016225215 -0.052796416 -0.059746776 -0.04896578 -0.026053814 0.09744376
0.0075139245 -0.07578285 -0.0356075 -0.11223297 -0.07994688 0.027554305 -0.05529169 0.0093747275
0.0075204326 -0.034282714 0.020351555 -0.009848268 0.078413405 -0.117890894 -0.12688121 -0.090326086
0.054071307 -0.00015588396 0.01476189 0.0053686197 -0.08601651 -0.003660965 0.0029973243 0.016439399
-0.09728187 -0.044258915 -0.0033199661 0.092820175 0.08965641 0.059834566 0.05710848 0.08372402
-0.07749406 -0.057882845 0.028657967 -0.118423834 0.011547023 0.08488348 -0.09627732 -0.02967531
-0.031493966 -0.01622047 0.009972663 0.10283909 0.015989715 0.07670035 0.06470452 -0.037029658
0.06992673 -0.11523334 0.0692672 -0.0012779468 0.051609248 -0.07517544 0.015238402 0.090041175
-0.11497575 -0.037764184 -0.035059918 0.002203452 -0.14335339 0.057499144 -0.1117334 -0.026042186
-0.035818968 -0.056643844 -0.007299333 0.031486023 0.038457297 -0.016577609 0.07381698 -0.056577444
-0.03511367 0.12446916 -0.09220877 0.030850867 0.03769073 -0.05392467 -0.06808447 -0.020104475
-0.015692549 0.03570561 -0.07815319 -0.03094844 -0.06527688 -0.04123323 0.037926756 -0.019326592
0.008760266 0.005688048 -0.0073224935 0.02448958 0.10523531 0.08326675 -0.039741177 -0.09432401
0.0031188915 0.12507336 -0.16467382 -0.037237942 0.095654204 0.027620444 0.082005695 0.071392186
-0.091989726 -0.036392003 0.06282195 -0.04137362 0.009355705 0.09621994 -0.10643868 0.051607396
0.019593133 0.048780166 -0.023177804 -0.07251321 -0.057518788 -0.03187525 -0.06451007 -0.07722882
0.0020737085 -0.12614 0.04382919 0.017126927 -0.07603912 0.028952409 -0.08557198 -0.08157045
-0.012672838 -0.052338295 0.020555314 -0.019599482 0.08350228 0.024287753 0.044448927 -0.03897236
-0.06682925 0.076696336 0.04206458 0.02982679 0.09469441 -0.13617228 -0.09591143 -0.03327191
-0.009636127 -0.10298816 -0.12714987 -0.038746845 0.018855944 0.012582258 0.004444684 -0.006276249
0.06391348 -0.029217448 -0.06317669 0.000881053 -0.0022834674 -0.07012631 0.039537676 0.0710907
-0.15435533 0.12954387 -0.10611057 -0.1536848 -0.052279655 -0.0038215818 -0.0034762844 0.0057807695
0.06603486 -0.11740537 0.1002457 0.024279602 -0.022878138 -0.05975668 -0.072407305 0.044497907
0.06176096 -0.030218126 -0.05061397 -0.05842714 -0.06612377 0.06439515 -0.09927048 -0.04689773
0.08415839 -0.04541567 0.055021804 0.058105234 -0.08502118 0.08796943 0.06653423 0.08348854
0.0840554 0.020438295 0.05411932 -0.032087184 0.028556604 0.020272253 -0.062608436 0.0170729
0.032720763 -0.027632438 0.014173115 0.103200525 -0.2007903 -0.076434806 0.03542426 -0.10925029
0.003368446 -0.11944134 -0.06278524 0.019031707 0.037240144 -0.077869736 0.060025852 -0.10597239

final_CNN/conv_layer_2/BiasAdd/ReadVariableOp:0 f4 [64]
00000000: 0ea3 b8b9 3e42 51bd 27ef dabc 6897 39bd
00000010: 1d49 f0bc 316a 90bc ae13 50bd f712 b33c
00000020: 63c5 9dbc 4464 1dbc 5aa8 793c 4fec ea3b
00000030: 9826 92bb 45cd 133c 140b 74bd f803 0dbd
00000040: cd4c acbd 6f67 21bd 9575 b2bc 4578 3abd
00000050: 7926 36bc e2d8 1fbc fbb8 82bc 9a93 09bd
00000060: fc60 e4bc 95ad 0fbd df0c 48bd 9566 bebc
00000070: 4d9a 56bc 9af3 94bd 7655 97bd 622c 01bd
00000080: 1b66 8c3c 85af b5bd 4a09 93bb 499a 63bd
00000090: 3f82 09bd e858 8dbd 77da 32bd 9a8f 323b
000000a0: cf5a 81bd 1ccf 12bc 03aa 383d 19c7 61bb
000000b0: c43e 64bd acc6 7dbc b70b 73bd bd62 6bbc
000000c0: c40d 3ebc 1b77 a5bd 1c67 8bbb 6983 3ebd
000000d0: 9618 39bd bed2 88bc fe2a a8bb 355d 2dbc
000000e0: d749 d43b 04f8 1bbd 09fb d4bc 7c48 1dbd
000000f0: 47c6 91bc ca92 7ebc 678a 47bd 760e f93b
-0.000352167 -0.051088564 -0.026725365 -0.045310408 -0.029331738 -0.017628761 -0.050800018 0.02185963
-0.01925916 -0.009606425 0.015237892 0.0071692835 -0.004460167 0.009021108 -0.059580877 -0.034427613
-0.08413086 -0.039405283 -0.021784583 -0.045524854 -0.011117571 -0.009756299 -0.015957346 -0.03358803
-0.027878277 -0.03507765 -0.0488404 -0.023242274 -0.013098312 -0.07273026 -0.07389347 -0.031536467
0.017138531 -0.08871368 -0.0044871913 -0.05556706 -0.033571478 -0.06901723 -0.043665376 0.0027246238
-0.063161485 -0.008960512 0.04508401 -0.0034450947 -0.05572392 -0.015489262 -0.059337344 -0.014366803
-0.011599962 -0.08079358 -0.004254235 -0.04651204 -0.045189463 -0.016702052 -0.005132078 -0.010581304
0.006478529 -0.038078323 -0.02599861 -0.038399205 -0.017794741 -0.015537927 -0.048715975 0.007600601

final_CNN/conv_layer_1/Conv2D/ReadVariableOp:0 f4 [32, 1, 3, 3]
00000000: 9cf5 b8bc 80a1 c8ba b245 84bd 415d 85bd
00000010: fe99 0abe 0eb3 4fbd 6421 efbd 7f15 cdbd
00000020: 60d4 adbd eb2f a43c 0acb f33b 49e1 63be
00000030: e610 a93c f209 4c3e 992b a5bd 8ee5 923c
00000040: 4c28 923c d434 1c3e 31de df3d f767 ff3d
00000050: 4136 e4bd 0527 d73d c9a7 04be d35c 613c
00000060: c23d f73d 25fd ac3b f5fc ecbd d04c 8ebb
00000070: c709 7abc cde1 473e e6b5 abbc 3eda ef3b
00000080: 4fc0 523d 29c1 01be 6187 85be cb44 5dbe
00000090: a624 533d 142c dc3d 85c3 3b3e 0ebb 223d
000000a0: b879 cfbb a798 22bd 9533 44be 23e9 39be
000000b0: 8dc5 9ebc edba 18be 93ca f9bc c62c cfbb
000000c0: 527d 66be 37be 1fbc d031 473a 1d3e 263e
000000d0: 49bc 0b3c 08d6 833e af23 20bd c9de 2d3e
000000e0: 8cbc 3f3d 4078 4a3c 5ec2 49bd 33a3 f9bd
000000f0: ca50 8dba 7730 b23d a07d 3cbd 4a42 593d
00000100: 3656 d03c 21f6 63be c55c ef3c 14c0 143e
00000110: da01 81be 8eae 5c3d 98d3 1d3d abcb 67be
00000120: 1d3e 37be 176a eabd 5a93 903d c564 cd3d
00000130: 874c af3d 128f cb3d addc 843c 3e11 443e
00000140: 906d 27be 5ff5 1fbd 2fce 3dbe b6f4 93bc
00000150: 77aa 013d 83fe b93d 26ca 4a3c 2851 d6bc
00000160: d917 ef3b f28f cd3d 1bbb d23d b6f7 153e
00000170: c0b2 163e 50be d83d 9b04 513d 0cd0 0dbe
00000180: 6495 bcbc b206 213d a580 723d a3b7 9b3d
00000190: 9019 863d 9b3a 50be 5f2c c73c 92e3 203e
000001a0: ca2c 403c 831c d5bd 2a6a 0c3e d2f9 fe3c
000001b0: c109 6bbd ada2 fa3d 2fcf d33c 419a 6b3d
000001c0: 7988 4e3d bf66 09be c3b2 0a3e e9a1 c23b
000001d0: 7191 c6bd 2b45 bbbd ef7e d1bd d2d1 edbd
000001e0: 588a 363c 4f89 eb3b 94f4 6a3c f75f 7d3d
000001f0: 50a2 413c 0973 023e c310 0bbd c7e4 873d
00000200: f9d6 373e 6541 a93c 95c7 bdbd eac8 513e
00000210: 4d04 88be 4ab8 22be da46 4e3c 772d 53be
00000220: 5496 a93d fd79 c83d 7346 f8bd dfa2 073d
00000230: 75ed 593d 0073 923d cda2 d23d abc7 03bc
00000240: 88a0 8f3c 6b3f 793d e016 ea3d 27ad 5fbd
00000250: c0e7 673d 6bf7 89bd bc31 8a3d a739 7d3d
00000260: 8c23 cbbd cb45 a7bd 359b 63be b55a 4dbe
00000270: 1417 093e 0f55 953d 089b 053e 70d6 013d
00000280: 855d d53d f8fc 89bb f3a4 613e 32dd 503e
00000290: b928 e53d 0e40 31bd a756 4ebc 02b7 26bd
000002a0: b831 52be b5ac 5abe a199 16be dcc4 353e
000002b0: f717 a83d d994 1cbe 95ef c03d d102 42bd
000002c0: 0231 85be 79f1 12be df27 7abe 0c80 5bbc
000002d0: 295a 393d fdb7 59be 2f14 55be d848 11ba
000002e0: d246 c63d a9b1 a3ba cbc6 223d 7999 283e
000002f0: 9701 753d 0939 103e c009 1e3e a5ab e23d
00000300: 404a 1fbe 9c69 b1bb ae9b 66bd 2453 7dbe
00000310: 147d 36bd 74b9 25be 4872 153e 0dec 333b
00000320: 2d02 4b3e 96ea 90bd 07f4 c63d c75c b6bd
00000330: 4fad 2ebd 0efc 46be fbd1 0cbd 3771 783e
00000340: e2cf 653d 1970 f5bc c672 9b3c 1066 01b9
00000350: 3b06 28be ecfc cabc 9fc8 d0bd ed2a 2bbe
00000360: 4a79 103e 8b02 bbbd 2e78 4bbe 1aa8 ef3d
00000370: 7bd6 bd3d 7da1 b73d a026 95bd 0a38 513d
00000380: aaa5 92bd 749d 1b3c cdab 953a 9274 993d
00000390: 13e7 62be 9103 3d3e d9ed 083e 4146 97be
000003a0: dbb5 e3bb 3d64 843d 9ea5 973d df43 d0bd
000003b0: cc06 3abe 8d32 5f3d e112 063e 6a02 0f3e
000003c0: caae 08bc 027c 88bd 27d1 363d 705c d73d
000003d0: e9ac 11be 26ae 62be c8b2 4e3e 03c1 d03c
000003e0: 6464 84be d97f 1b3e 04ca e13d a20e 283d
000003f0: 37b9 893b b62b 323e 835f 063e 4844 6a3d
-0.022578053 -0.001530692 -0.06458606 -0.065119274 -0.13535306 -0.05070787 -0.11676291 -0.10013866
-0.08487773 0.02004238 0.0074399756 -0.22253908 0.02063794 0.19925669 -0.08064956 0.017931726
0.01784148 0.15254527 0.109310515 0.124710016 -0.111431606 0.10505489 -0.1295463 0.013755041
0.12072326 0.0052792006 -0.11571685 -0.004342653 -0.01526112 0.1951973 -0.02096076 0.0073197177
0.05145293 -0.12671341 -0.26079848 -0.21608274 0.051548623 0.10750595 0.18336304 0.03972917
-0.0063316487 -0.039696362 -0.19160302 -0.18155341 -0.019381309 -0.14915057 -0.030492103 -0.006322476
-0.22508743 -0.009749941 0.000759867 0.16234632 0.008528777 0.2574923 -0.03909653 0.16979517
0.04681067 0.012357771 -0.04925763 -0.12189331 -0.0010781523 0.0870065 -0.046018243 0.053041734
0.025431734 -0.2226186 0.02921904 0.14526397 -0.25196725 0.053877406 0.03853187 -0.22636287
-0.17894788 -0.11446016 0.07059355 0.10028986 0.08559518 0.09939398 0.016218508 0.19147202
-0.16350389 -0.039052363 -0.18535684 -0.018061023 0.03165671 0.090817474 0.0123772975 -0.026161745
0.007296544 0.10037221 0.10289594 0.14645275 0.14716625 0.10583174 0.051029783 -0.13848895
-0.023020454 0.039313026 0.059204716 0.07603385 0.065478444 -0.20334856 0.02431315 0.15711811
0.011729429 -0.10405829 0.13712373 0.031124983 -0.05738235 0.12238059 0.025855629 0.057520155
0.05042312 -0.13418101 0.13544755 0.0059397114 -0.096957095 -0.09144052 -0.10229289 -0.11612286
0.011141382 0.0071879993 0.0143405385 0.061859097 0.0118184835 0.12739195 -0.033951532 0.06635433
0.179531 0.020661065 -0.09266583 0.20486799 -0.2656578 -0.15890613 0.0125901345 -0.20622812
0.08280626 0.097888924 -0.12122812 0.03311431 0.053204972 0.07150841 0.10284958 -0.00804321
0.017532602 0.060851496 0.11430144 -0.05460849 0.0566175 -0.06736644 0.06747767 0.06182256
-0.099188894 -0.08167609 -0.22227176 -0.20054133 0.1338771 0.07291614 0.13047421 0.031698644
0.10418228 -0.0042110644 0.2203558 0.2039688 0.11189408 -0.043273978 -0.012593902 -0.040701874
-0.20526779 -0.21354945 -0.14707042 0.17750877 0.08207696 -0.15291156 0.09420697 -0.047365967
-0.26013952 -0.14349927 -0.24429272 -0.013397228 0.045252 -0.21261592 -0.2080848 -0.00055421656
0.09681477 -0.001248886 0.039740365 0.16464795 0.05981597 0.14084257 0.15433407 0.11067895
-0.15555668 -0.005414201 -0.05630081 -0.24738747 -0.044552878 -0.16184026 0.14594376 0.002745393
0.19825049 -0.07075994 0.09714513 -0.089044146 -0.04264575 -0.19432089 -0.03437994 0.24261938
0.056106456 -0.029960679 0.018975627 -0.0001234042 -0.16408627 -0.024778806 -0.101945154 -0.16715594
0.14108768 -0.091313444 -0.19870064 0.11701985 0.092694245 0.08966348 -0.07282758 0.051078834
-0.07160504 0.009497989 0.0011418998 0.07492937 -0.2215846 0.18458392 0.13371982 -0.29545787
-0.006949169 0.064644314 0.07404636 -0.101691954 -0.18166655 0.05449157 0.13093139 0.13965765
-0.008342454 -0.066642776 0.044633057 0.10515678 -0.14226116 -0.22136745 0.20185387 0.02548266
-0.25857842 0.15185489 0.110248595 0.04102958 0.0042029875 0.17399487 0.13122372 0.057194024

final_CNN/conv_layer_1/BiasAdd/ReadVariableOp:0 f4 [32]
00000000: 0000 0000 323b 97bd 32e2 3cbd b578 e73c
00000010: 88da 8b3c b6bd 8c3b 1604 3dbd c796 953d
00000020: 6248 7fbd 24f7 e53b e223 cebd 8fd9 7bbd
00000030: 59d3 75bd 9d4e 73bd f04e be3c 08e0 a3bd
00000040: 01a1 e4bd 6af0 5bba 8063 3b3d 2ec0 883d
00000050: 791b bdbb f9de 25bc 4c0b 6f3c c80f 973d
00000060: aa88 c3bc 1e45 20bc 282f 84bd 6994 84bc
00000070: 1bb5 2dbd e9fb 27bd 7397 40bd 2911 bfbc
0.0 -0.073843375 -0.046114154 0.0282558 0.017071977 0.0042950762 -0.046146475 0.07304149
-0.06232489 0.007017987 -0.10065438 -0.061486777 -0.06001601 -0.059401143 0.023231 -0.08001715
-0.111635216 -0.00083900115 0.045749187 0.0667728 -0.0057710973 -0.010123962 0.014590096 0.07376057
-0.023868877 -0.009782104 -0.06454307 -0.016184049 -0.042409044 -0.041011725 -0.047019433 -0.023323612
