cnn_model.tflite (tflite, 672424 bytes, 10 tensors)

final_CNN/conv_layer_1/BiasAdd/ReadVariableOp f4 [32]
000000 00 00 00 00 32 3b 97 bd 32 e2 3c bd b5 78 e7 3c
       0.0 -0.073843375 -0.046114154 0.0282558
000010 88 da 8b 3c b6 bd 8c 3b 16 04 3d bd c7 96 95 3d
       0.017071977 0.0042950762 -0.046146475 0.07304149
000020 62 48 7f bd 24 f7 e5 3b e2 23 ce bd 8f d9 7b bd
       -0.06232489 0.007017987 -0.10065438 -0.061486777
000030 59 d3 75 bd 9d 4e 73 bd f0 4e be 3c 08 e0 a3 bd
       -0.06001601 -0.059401143 0.023231 -0.08001715
000040 01 a1 e4 bd 6a f0 5b ba 80 63 3b 3d 2e c0 88 3d
       -0.111635216 -0.00083900115 0.045749187 0.0667728
000050 79 1b bd bb f9 de 25 bc 4c 0b 6f 3c c8 0f 97 3d
       -0.0057710973 -0.010123962 0.014590096 0.07376057
000060 aa 88 c3 bc 1e 45 20 bc 28 2f 84 bd 69 94 84 bc
       -0.023868877 -0.009782104 -0.06454307 -0.016184049
000070 1b b5 2d bd e9 fb 27 bd 73 97 40 bd 29 11 bf bc
       -0.042409044 -0.041011725 -0.047019433 -0.023323612

final_CNN/conv_layer_2/BiasAdd/ReadVariableOp f4 [64]
000000 0e a3 b8 b9 3e 42 51 bd 27 ef da bc 68 97 39 bd
       -0.000352167 -0.051088564 -0.026725365 -0.045310408
000010 1d 49 f0 bc 31 6a 90 bc ae 13 50 bd f7 12 b3 3c
       -0.029331738 -0.017628761 -0.050800018 0.02185963
000020 63 c5 9d bc 44 64 1d bc 5a a8 79 3c 4f ec ea 3b
       -0.01925916 -0.009606425 0.015237892 0.0071692835
000030 98 26 92 bb 45 cd 13 3c 14 0b 74 bd f8 03 0d bd
       -0.004460167 0.009021108 -0.059580877 -0.034427613
000040 cd 4c ac bd 6f 67 21 bd 95 75 b2 bc 45 78 3a bd
       -0.08413086 -0.039405283 -0.021784583 -0.045524854
000050 79 26 36 bc e2 d8 1f bc fb b8 82 bc 9a 93 09 bd
       -0.011117571 -0.009756299 -0.015957346 -0.03358803
000060 fc 60 e4 bc 95 ad 0f bd df 0c 48 bd 95 66 be bc
       -0.027878277 -0.03507765 -0.0488404 -0.023242274
000070 4d 9a 56 bc 9a f3 94 bd 76 55 97 bd 62 2c 01 bd
       -0.013098312 -0.07273026 -0.07389347 -0.031536467
000080 1b 66 8c 3c 85 af b5 bd 4a 09 93 bb 49 9a 63 bd
       0.017138531 -0.08871368 -0.0044871913 -0.05556706
000090 3f 82 09 bd e8 58 8d bd 77 da 32 bd 9a 8f 32 3b
       -0.033571478 -0.06901723 -0.043665376 0.0027246238
0000a0 cf 5a 81 bd 1c cf 12 bc 03 aa 38 3d 19 c7 61 bb
       -0.063161485 -0.008960512 0.04508401 -0.0034450947
0000b0 c4 3e 64 bd ac c6 7d bc b7 0b 73 bd bd 62 6b bc
       -0.05572392 -0.015489262 -0.059337344 -0.014366803
0000c0 c4 0d 3e bc 1b 77 a5 bd 1c 67 8b bb 69 83 3e bd
       -0.011599962 -0.08079358 -0.004254235 -0.04651204
0000d0 96 18 39 bd be d2 88 bc fe 2a a8 bb 35 5d 2d bc
       -0.045189463 -0.016702052 -0.005132078 -0.010581304
0000e0 d7 49 d4 3b 04 f8 1b bd 09 fb d4 bc 7c 48 1d bd
       0.006478529 -0.038078323 -0.02599861 -0.038399205
0000f0 47 c6 91 bc ca 92 7e bc 67 8a 47 bd 76 0e f9 3b
       -0.017794741 -0.015537927 -0.048715975 0.007600601

final_CNN/conv_layer_3/BiasAdd/ReadVariableOp f4 [128]
000000 c9 f6 34 bd 57 c3 a3 bc cc 96 5a bc 94 2d 43 bc
       -0.044180665 -0.019990606 -0.013341617 -0.011912722
000010 a8 e7 b1 3c 60 66 e9 b7 47 2c a7 3a 51 6e 0f 3b
       0.021716908 -2.7823437e-05 0.0012754285 0.0021885822
000020 02 4c 1f bc e2 14 ba 3c bd 1c ec ba 26 41 bc bb
       -0.0097227115 0.022715036 -0.0018013936 -0.005745071
000030 3d 0d 66 3c 59 ba 11 bd b9 e0 c2 bc 6d a8 ce bc
       0.014041242 -0.035578106 -0.023788797 -0.025226796
000040 e6 81 e2 3a 8e 10 c7 ba 95 67 f9 bb a7 b3 ac bc
       0.0017281144 -0.0015187429 -0.007611225 -0.021081759
000050 86 52 0f bd 7d 5f 93 bc be cf 00 3b b2 7a 1a bd
       -0.03499081 -0.017989868 0.0019655074 -0.037714668
000060 40 11 4e bc 11 3d c9 bc 5c a2 54 39 f1 ee 1c bc
       -0.012577355 -0.024565252 0.00020278379 -0.009578452
000070 a2 4a ea bc 5a 2b 32 bc 16 ab 22 bd 19 62 41 3a
       -0.02860004 -0.010874594 -0.03971394 0.00073769834
000080 66 cd 2b bc 10 f6 9b bc bb fb b0 bc 47 e5 ab bc
       -0.0104859825 -0.01903823 -0.02160441 -0.020983351
000090 66 41 36 bd c8 ba 56 bc bb 4c 4e bc 4c 6d 16 39
       -0.044495963 -0.013106056 -0.012591536 0.00014345831
0000a0 90 2a f7 bc 4f 9d b9 bc bb c6 34 3a a7 d5 69 bc
       -0.030171663 -0.022658018 0.0006896068 -0.01427213
0000b0 b0 ca 3a bc 34 1f 6e bd 0f 7d 01 bc 13 a0 8a 3d
       -0.0114008635 -0.058135226 -0.007903351 0.06768813
0000c0 11 7d d7 3c d8 0a c5 bc 78 c9 b0 bc 1f 6f f4 bc
       0.026304753 -0.024053022 -0.021580443 -0.029838143
0000d0 56 a0 e9 bc 75 cf 9e 3c 2d 1b f4 3c bf 56 04 bc
       -0.028518837 0.019386033 0.029798115 -0.0080773225
0000e0 a4 29 e7 ba b9 67 98 3b af d4 cb bc 13 f0 03 bd
       -0.0017636311 0.0046510366 -0.024881689 -0.032211374
0000f0 ed 0f fa bb fc 85 e0 3b cf 67 cc bc e7 68 c3 3b
       -0.007631293 0.0068519097 -0.024951844 0.005963433
000100 f1 78 b0 bc 13 51 c6 bc a8 b8 bf bc ec e9 c2 bc
       -0.021542044 -0.024208581 -0.02340348 -0.023793183
000110 0c 97 f3 bc 7a 0a 99 3b 28 b1 59 39 28 9a 02 bd
       -0.02973511 0.0046704384 0.00020760729 -0.031885296
000120 1c a0 fd 3b 32 db f4 3c 54 7d 98 bc 10 13 0e bd
       0.007740034 0.029889677 -0.018614449 -0.03468615
000130 f4 26 91 ba 72 15 99 3b 89 09 fe bb f8 df 13 bd
       -0.0011074231 0.004671746 -0.0077526015 -0.036102265
000140 47 f2 88 bb fb 43 11 bd 17 b5 94 bc b1 36 ae bc
       -0.0041792723 -0.03546522 -0.018152757 -0.021266313
000150 a9 01 25 bc 73 50 5b ba ad b4 91 3c c0 91 86 bc
       -0.010071197 -0.0008366175 0.017786348 -0.01642692
000160 65 56 b3 ba 24 ed 88 bc ab a3 1c 38 83 68 06 bd
       -0.0013682364 -0.01671464 3.7345726e-05 -0.032814514
000170 1f 27 ba 3c ec 5d d3 3c 15 9b e5 bc ec 7e df bc
       0.022723733 0.025801621 -0.02802805 -0.0272822
000180 61 ae 34 3c d2 22 1d 3c 35 fe a0 bc f9 69 e9 bb
       0.011027903 0.009590821 -0.019652465 -0.0071232286
000190 1e 7d fa bc 92 a8 e8 bc 90 87 d2 3c 86 d9 92 bb
       -0.030577239 -0.028400693 0.025699407 -0.004481497
0001a0 b9 7d 99 bb 2a 95 de bc 46 ab ca bc f4 6e 87 bc
       -0.0046841768 -0.027170736 -0.024739873 -0.016532399
0001b0 17 26 cd bc 56 d3 c3 bb 5f b2 40 bc 57 2a 52 bd
       -0.025042577 -0.005976121 -0.011761277 -0.05130991
0001c0 52 59 20 3d ca bf b7 3b 18 d1 2c bb 1e fd 36 bd
       0.039147682 0.00560758 -0.0026369747 -0.044674985
0001d0 5b e6 28 3b 0f 22 d8 bc 82 c9 b8 bb a7 85 c5 bc
       0.0025772068 -0.026383428 -0.005639256 -0.024111582
0001e0 5b 5b 9d bb d0 be 1e ba f2 16 78 ba d9 90 9f bc
       -0.00480215 -0.0006055655 -0.00094638683 -0.019478248
0001f0 34 d7 a0 bc 41 eb 0a 3a 5e 3d 48 3c ef 02 f1 bc
       -0.019633867 0.0005299338 0.012221662 -0.029420344

final_CNN/conv_layer_1/Conv2D f4 [32, 3, 3, 1]
000000 9c f5 b8 bc 80 a1 c8 ba b2 45 84 bd 41 5d 85 bd
       -0.022578053 -0.001530692 -0.06458606 -0.065119274
000010 fe 99 0a be 0e b3 4f bd 64 21 ef bd 7f 15 cd bd
       -0.13535306 -0.05070787 -0.11676291 -0.10013866
000020 60 d4 ad bd eb 2f a4 3c 0a cb f3 3b 49 e1 63 be
       -0.08487773 0.02004238 0.0074399756 -0.22253908
000030 e6 10 a9 3c f2 09 4c 3e 99 2b a5 bd 8e e5 92 3c
       0.02063794 0.19925669 -0.08064956 0.017931726
000040 4c 28 92 3c d4 34 1c 3e 31 de df 3d f7 67 ff 3d
       0.01784148 0.15254527 0.109310515 0.124710016
000050 41 36 e4 bd 05 27 d7 3d c9 a7 04 be d3 5c 61 3c
       -0.111431606 0.10505489 -0.1295463 0.013755041
000060 c2 3d f7 3d 25 fd ac 3b f5 fc ec bd d0 4c 8e bb
       0.12072326 0.0052792006 -0.11571685 -0.004342653
000070 c7 09 7a bc cd e1 47 3e e6 b5 ab bc 3e da ef 3b
       -0.01526112 0.1951973 -0.02096076 0.0073197177
000080 4f c0 52 3d 29 c1 01 be 61 87 85 be cb 44 5d be
       0.05145293 -0.12671341 -0.26079848 -0.21608274
000090 a6 24 53 3d 14 2c dc 3d 85 c3 3b 3e 0e bb 22 3d
       0.051548623 0.10750595 0.18336304 0.03972917
0000a0 b8 79 cf bb a7 98 22 bd 95 33 44 be 23 e9 39 be
       -0.0063316487 -0.039696362 -0.19160302 -0.18155341
0000b0 8d c5 9e bc ed ba 18 be 93 ca f9 bc c6 2c cf bb
       -0.019381309 -0.14915057 -0.030492103 -0.006322476
0000c0 52 7d 66 be 37 be 1f bc d0 31 47 3a 1d 3e 26 3e
       -0.22508743 -0.009749941 0.000759867 0.16234632
0000d0 49 bc 0b 3c 08 d6 83 3e af 23 20 bd c9 de 2d 3e
       0.008528777 0.2574923 -0.03909653 0.16979517
0000e0 8c bc 3f 3d 40 78 4a 3c 5e c2 49 bd 33 a3 f9 bd
       0.04681067 0.012357771 -0.04925763 -0.12189331
0000f0 ca 50 8d ba 77 30 b2 3d a0 7d 3c bd 4a 42 59 3d
       -0.0010781523 0.0870065 -0.046018243 0.053041734
000100 36 56 d0 3c 21 f6 63 be c5 5c ef 3c 14 c0 14 3e
       0.025431734 -0.2226186 0.02921904 0.14526397
000110 da 01 81 be 8e ae 5c 3d 98 d3 1d 3d ab cb 67 be
       -0.25196725 0.053877406 0.03853187 -0.22636287
000120 1d 3e 37 be 17 6a ea bd 5a 93 90 3d c5 64 cd 3d
       -0.17894788 -0.11446016 0.07059355 0.10028986
000130 87 4c af 3d 12 8f cb 3d ad dc 84 3c 3e 11 44 3e
       0.08559518 0.09939398 0.016218508 0.19147202
000140 90 6d 27 be 5f f5 1f bd 2f ce 3d be b6 f4 93 bc
       -0.16350389 -0.039052363 -0.18535684 -0.018061023
000150 77 aa 01 3d 83 fe b9 3d 26 ca 4a 3c 28 51 d6 bc
       0.03165671 0.090817474 0.0123772975 -0.026161745
000160 d9 17 ef 3b f2 8f cd 3d 1b bb d2 3d b6 f7 15 3e
       0.007296544 0.10037221 0.10289594 0.14645275
000170 c0 b2 16 3e 50 be d8 3d 9b 04 51 3d 0c d0 0d be
       0.14716625 0.10583174 0.051029783 -0.13848895
000180 64 95 bc bc b2 06 21 3d a5 80 72 3d a3 b7 9b 3d
       -0.023020454 0.039313026 0.059204716 0.07603385
000190 90 19 86 3d 9b 3a 50 be 5f 2c c7 3c 92 e3 20 3e
       0.065478444 -0.20334856 0.02431315 0.15711811
0001a0 ca 2c 40 3c 83 1c d5 bd 2a 6a 0c 3e d2 f9 fe 3c
       0.011729429 -0.10405829 0.13712373 0.031124983
0001b0 c1 09 6b bd ad a2 fa 3d 2f cf d3 3c 41 9a 6b 3d
       -0.05738235 0.12238059 0.025855629 0.057520155
0001c0 79 88 4e 3d bf 66 09 be c3 b2 0a 3e e9 a1 c2 3b
       0.05042312 -0.13418101 0.13544755 0.0059397114
0001d0 71 91 c6 bd 2b 45 bb bd ef 7e d1 bd d2 d1 ed bd
       -0.096957095 -0.09144052 -0.10229289 -0.11612286
0001e0 58 8a 36 3c 4f 89 eb 3b 94 f4 6a 3c f7 5f 7d 3d
       0.011141382 0.0071879993 0.0143405385 0.061859097
0001f0 50 a2 41 3c 09 73 02 3e c3 10 0b bd c7 e4 87 3d
       0.0118184835 0.12739195 -0.033951532 0.06635433
000200 f9 d6 37 3e 65 41 a9 3c 95 c7 bd bd ea c8 51 3e
       0.179531 0.020661065 -0.09266583 0.20486799
000210 4d 04 88 be 4a b8 22 be da 46 4e 3c 77 2d 53 be
       -0.2656578 -0.15890613 0.0125901345 -0.20622812
000220 54 96 a9 3d fd 79 c8 3d 73 46 f8 bd df a2 07 3d
       0.08280626 0.097888924 -0.12122812 0.03311431
000230 75 ed 59 3d 00 73 92 3d cd a2 d2 3d ab c7 03 bc
       0.053204972 0.07150841 0.10284958 -0.00804321
000240 88 a0 8f 3c 6b 3f 79 3d e0 16 ea 3d 27 ad 5f bd
       0.017532602 0.060851496 0.11430144 -0.05460849
000250 c0 e7 67 3d 6b f7 89 bd bc 31 8a 3d a7 39 7d 3d
       0.0566175 -0.06736644 0.06747767 0.06182256
000260 8c 23 cb bd cb 45 a7 bd 35 9b 63 be b5 5a 4d be
       -0.099188894 -0.08167609 -0.22227176 -0.20054133
000270 14 17 09 3e 0f 55 95 3d 08 9b 05 3e 70 d6 01 3d
       0.1338771 0.07291614 0.13047421 0.031698644
000280 85 5d d5 3d f8 fc 89 bb f3 a4 61 3e 32 dd 50 3e
       0.10418228 -0.0042110644 0.2203558 0.2039688
000290 b9 28 e5 3d 0e 40 31 bd a7 56 4e bc 02 b7 26 bd
       0.11189408 -0.043273978 -0.012593902 -0.040701874
0002a0 b8 31 52 be b5 ac 5a be a1 99 16 be dc c4 35 3e
       -0.20526779 -0.21354945 -0.14707042 0.17750877
0002b0 f7 17 a8 3d d9 94 1c be 95 ef c0 3d d1 02 42 bd
       0.08207696 -0.15291156 0.09420697 -0.047365967
0002c0 02 31 85 be 79 f1 12 be df 27 7a be 0c 80 5b bc
       -0.26013952 -0.14349927 -0.24429272 -0.013397228
0002d0 29 5a 39 3d fd b7 59 be 2f 14 55 be d8 48 11 ba
       0.045252 -0.21261592 -0.2080848 -0.00055421656
0002e0 d2 46 c6 3d a9 b1 a3 ba cb c6 22 3d 79 99 28 3e
       0.09681477 -0.001248886 0.039740365 0.16464795
0002f0 97 01 75 3d 09 39 10 3e c0 09 1e 3e a5 ab e2 3d
       0.05981597 0.14084257 0.15433407 0.11067895
000300 40 4a 1f be 9c 69 b1 bb ae 9b 66 bd 24 53 7d be
       -0.15555668 -0.005414201 -0.05630081 -0.24738747
000310 14 7d 36 bd 74 b9 25 be 48 72 15 3e 0d ec 33 3b
       -0.044552878 -0.16184026 0.14594376 0.002745393
000320 2d 02 4b 3e 96 ea 90 bd 07 f4 c6 3d c7 5c b6 bd
       0.19825049 -0.07075994 0.09714513 -0.089044146
000330 4f ad 2e bd 0e fc 46 be fb d1 0c bd 37 71 78 3e
       -0.04264575 -0.19432089 -0.03437994 0.24261938
000340 e2 cf 65 3d 19 70 f5 bc c6 72 9b 3c 10 66 01 b9
       0.056106456 -0.029960679 0.018975627 -0.0001234042
000350 3b 06 28 be ec fc ca bc 9f c8 d0 bd ed 2a 2b be
       -0.16408627 -0.024778806 -0.101945154 -0.16715594
000360 4a 79 10 3e 8b 02 bb bd 2e 78 4b be 1a a8 ef 3d
       0.14108768 -0.091313444 -0.19870064 0.11701985
000370 7b d6 bd 3d 7d a1 b7 3d a0 26 95 bd 0a 38 51 3d
       0.092694245 0.08966348 -0.07282758 0.051078834
000380 aa a5 92 bd 74 9d 1b 3c cd ab 95 3a 92 74 99 3d
       -0.07160504 0.009497989 0.0011418998 0.07492937
000390 13 e7 62 be 91 03 3d 3e d9 ed 08 3e 41 46 97 be
       -0.2215846 0.18458392 0.13371982 -0.29545787
0003a0 db b5 e3 bb 3d 64 84 3d 9e a5 97 3d df 43 d0 bd
       -0.006949169 0.064644314 0.07404636 -0.101691954
0003b0 cc 06 3a be 8d 32 5f 3d e1 12 06 3e 6a 02 0f 3e
       -0.18166655 0.05449157 0.13093139 0.13965765
0003c0 ca ae 08 bc 02 7c 88 bd 27 d1 36 3d 70 5c d7 3d
       -0.008342454 -0.066642776 0.044633057 0.10515678
0003d0 e9 ac 11 be 26 ae 62 be c8 b2 4e 3e 03 c1 d0 3c
       -0.14226116 -0.22136745 0.20185387 0.02548266
0003e0 64 64 84 be d9 7f 1b 3e 04 ca e1 3d a2 0e 28 3d
       -0.25857842 0.15185489 0.110248595 0.04102958
0003f0 37 b9 89 3b b6 2b 32 3e 83 5f 06 3e 48 44 6a 3d
       0.0042029875 0.17399487 0.13122372 0.057194024

final_CNN/conv_layer_2/Conv2D f4 [64, 3, 3, 32]
000000 36 70 53 3d f6 4a 1b 3c ba d1 b9 bc de 1d 6f bd
       0.051620685 0.009478321 -0.022683013 -0.058378093
000010 09 b9 74 bd 91 b9 e1 3c 26 ed 01 be eb ab 86 3c
       -0.059746776 0.027554305 -0.12688121 0.016439399
000020 35 b5 9e bd cb e0 84 bc f6 db 8d 3d ca 67 10 3b
       -0.07749406 -0.01622047 0.0692672 0.002203452
000030 66 85 1d 3d 1d e0 5c bd 16 59 1b 3d f2 2c c1 bd
       0.038457297 -0.05392467 0.037926756 -0.09432401
000040 1c 65 bc bd b6 cd 47 3d 3d 86 33 3d 18 8f a0 bc
       -0.091989726 0.048780166 0.04382919 -0.019599482
000050 25 ef c1 3d d1 25 4e 3c 42 f2 21 3d 9c 6c bd 3b
       0.09469441 0.012582258 0.039537676 0.0057807695
000060 0f f9 7c 3d c8 05 3a bd 38 ac 5d 3d cc 5a d3 3d
       0.06176096 -0.04541567 0.05411932 0.103200525
000070 1f 89 18 3d aa 06 8c bd d3 8b 25 bd d3 f5 64 3c
       0.037240144 -0.068372086 -0.04041655 0.013974625
000080 60 ec f4 bc cf 91 02 be 37 11 04 be 7f 8e e2 bd
       -0.029897869 -0.12750934 -0.12897192 -0.11062335
000090 57 90 48 bd 8a 79 62 bd e2 fc b8 bd b8 3b c7 bd
       -0.04896578 -0.05529169 -0.090326086 -0.09728187
0000a0 90 16 6d bd 61 64 23 3c c7 80 a7 ba 3b cb 12 be
       -0.057882845 0.009972663 -0.0012779468 -0.14335339
0000b0 c4 cd 87 bc df 6f 8b bd cd 52 9e bc 51 66 4c 3b
       -0.016577609 -0.06808447 -0.019326592 0.0031188915
0000c0 c8 0f 15 bd 61 df bd bc c5 4d 8c 3c 3e 03 ab 3d
       -0.036392003 -0.023177804 0.017126927 0.08350228
0000d0 bf 70 0b be b6 a4 91 3b 00 98 91 3d 49 3d 87 3d
       -0.13617228 0.004444684 0.0710907 0.06603486
0000e0 01 8c f7 bc 8b 5e 61 3d da 6d 03 bd f9 9b 4d be
       -0.030218126 0.055021804 -0.032087184 -0.2007903
0000f0 2b 7a 9f bd 4d b9 3f bd e9 f1 d3 bd d2 a6 dd bc
       -0.077869736 -0.046807576 -0.10348875 -0.027057085
000100 a3 c1 96 bd 9b cf 79 3d 44 04 71 3d 56 f4 be bd
       -0.07361152 0.060989004 0.05884196 -0.09323947
000110 cf 6e d5 bc 75 98 19 3c e0 79 5d 3d d6 48 35 bd
       -0.026053814 0.0093747275 0.054071307 -0.044258915
000120 1d c4 ea 3c 4d 9d d2 3d 38 64 53 3d 39 84 6b 3d
       0.028657967 0.10283909 0.051609248 0.057499144
000130 5b 2d 97 3d 24 b2 a4 bc 38 87 0f 3c 3b 13 00 3e
       0.07381698 -0.020104475 0.008760266 0.12507336
000140 cb a8 80 3d ce 81 94 bd 66 ba 9b bd 1c f7 c6 3c
       0.06282195 -0.07251321 -0.07603912 0.024287753
000150 36 6d c4 bd fe a8 cd bb 53 0f 1e be 3a 72 f0 bd
       -0.09591143 -0.006276249 -0.15435533 -0.11740537
000160 98 50 4f bd c1 ff 6d 3d 8a ef e9 3c da 89 9c bd
       -0.05061397 0.058105234 0.028556604 -0.076434806
000170 ab dd 75 3d 4e e9 0a 3d 11 c4 30 3c 8e 1d 04 bc
       0.060025852 0.033913903 0.010788933 -0.008063687
000180 a6 43 a3 bd 70 72 09 3b 07 d4 46 3d 94 b0 0d bd
       -0.07971887 0.002097275 0.04854205 -0.034592226
000190 98 90 c7 3d f6 6d f6 3b c8 74 23 b9 ca 93 59 bb
       0.09744376 0.0075204326 -0.00015588396 -0.0033199661
0001a0 32 88 f2 bd dd fc 82 3c 95 f5 99 bd 7b d4 e4 bd
       -0.118423834 0.015989715 -0.07517544 -0.1117334
0001b0 c0 bd 67 bd a9 8d 80 bc ce 62 ba 3b 41 a0 28 be
       -0.056577444 -0.015692549 0.005688048 -0.16467382
0001c0 63 77 29 bd d2 98 6b bd 9a 2d ed 3c 14 10 36 3d
       -0.04137362 -0.057518788 0.028952409 0.044448927
0001d0 20 48 08 bd 12 e5 82 3d 26 a7 04 3e 9e 4d cd 3d
       -0.03327191 0.06391348 0.12954387 0.1002457
0001e0 4c 51 6f bd 96 1f ae bd ff 11 a6 3c 07 19 11 3d
       -0.05842714 -0.08502118 0.020272253 0.03542426
0001f0 0d 08 d9 bd 26 54 85 bd b1 86 af 3a 4b 83 44 bd
       -0.10597239 -0.06510191 0.0013391582 -0.047976773
000200 00 6a 53 b9 1a c6 0f be 14 49 c2 bd f6 d7 0d be
       -0.00020162016 -0.14040413 -0.09486595 -0.13851914
000210 5e 37 f6 3b 08 6c 0c bd db db 71 3c 81 18 be 3d
       0.0075139245 -0.034282714 0.01476189 0.092820175
000220 ba 2f 3d 3c 13 15 9d 3d 7e aa 79 3c 6c 56 d5 bc
       0.011547023 0.07670035 0.015238402 -0.026042186
000230 5a d3 0f bd 0c 40 12 3d 87 f1 ef bb d0 86 18 bd
       -0.03511367 0.03570561 -0.0073224935 -0.037237942
000240 ac 48 19 3c 9f 8f 02 bd 5d 40 af bd 7b a1 1f bd
       0.009355705 -0.03187525 -0.08557198 -0.03897236
000250 d9 e0 1d bc 6e 59 ef bc 80 50 d9 bd 04 e6 c6 3c
       -0.009636127 -0.029217448 -0.10611057 0.024279602
000260 e6 6b 87 bd 51 29 b4 3d da 38 80 bd 9e be df bd
       -0.06612377 0.08796943 -0.062608436 -0.10925029
000270 48 37 a8 3c 74 d2 78 3d 1c 14 a0 3c d3 f3 98 bd
       0.020534173 0.06074758 0.019540839 -0.07468381
000280 a6 34 0a 3d 88 36 23 bd 48 7a 8a 3c 4a e5 09 be
       0.033741616 -0.039846927 0.016904011 -0.13466373
000290 0a 34 9b bd 4e b8 a6 3c 3f eb af 3b c8 9d b7 3d
       -0.07578285 0.020351555 0.0053686197 0.08965641
0002a0 64 d7 ad 3d ce 83 84 3d 82 67 b8 3d e9 b6 12 bd
       0.08488348 0.06470452 0.090041175 -0.035818968
0002b0 b0 e9 fe 3d c8 0e a0 bd 5f 9e c8 3c 5a e6 c3 3d
       0.12446916 -0.07815319 0.02448958 0.095654204
0002c0 f6 0e c5 3d db 1d 84 bd 68 0e a7 bd c6 dd 88 bd
       0.09621994 -0.06451007 -0.08157045 -0.06682925
0002d0 75 eb d2 bd c8 62 81 bd 8c 5f 1d be ef 6a bb bc
       -0.10298816 -0.06317669 -0.1536848 -0.022878138
0002e0 9b e1 83 3d 19 43 88 3d 77 dc 8b 3c 25 c1 5c 3b
       0.06439515 0.06653423 0.0170729 0.003368446
0002f0 f7 fa 1b 3c 6b f7 32 3d 96 64 30 bd 24 44 2f 3e
       0.009520284 0.043692987 -0.043064676 0.17115837
000300 00 64 1c bc 2f 35 70 3c a3 b5 52 bd 01 9c 78 bc
       -0.009545326 0.014661117 -0.051442754 -0.015173913
000310 2b d9 11 bd a1 5a 21 bc 6d 29 b0 bd 17 15 75 3d
       -0.0356075 -0.009848268 -0.08601651 0.059834566
000320 0b 2d c5 bd 69 ac 17 bd 68 78 eb bd 60 03 68 bd
       -0.09627732 -0.037029658 -0.11497575 -0.056643844
000330 f4 d7 bc bd 95 87 fd bc 9c 85 d7 3d 45 44 e2 3c
       -0.09220877 -0.03094844 0.10523531 0.027620444
000340 86 fc d9 bd 25 2a 9e bd bc a1 4f bc f8 12 9d 3d
       -0.10643868 -0.07722882 -0.012672838 0.076696336
000350 93 33 02 be 77 f6 66 3a 31 23 56 bd 6c c3 74 bd
       -0.12714987 0.000881053 -0.052279655 -0.05975668
000360 52 4e cb bd 0a fc aa 3d 35 06 06 3d a9 9d f4 bd
       -0.09927048 0.08348854 0.032720763 -0.11944134
000370 7f 99 fd bd d1 6b 23 3d e5 6f c9 bd e6 11 05 3d
       -0.12382793 0.039897744 -0.09835795 0.032487772
000380 9b b4 67 bd 6f 7e 50 bd 0c b0 61 3d be ea 84 bc
       -0.056568723 -0.050901826 0.055099532 -0.016225215
000390 66 da e5 bd 35 97 a0 3d cd ec 6f bb 95 ea 69 3d
       -0.11223297 0.078413405 -0.003660965 0.05710848
0003a0 a3 19 f3 bc bf 35 8f 3d 9e ae 1a bd 3e 2f ef bb
       -0.02967531 0.06992673 -0.037764184 -0.007299333
0003b0 f5 ba fc 3c e3 af 85 bd c2 87 aa 3d 9a f2 a7 3d
       0.030850867 -0.06527688 0.08326675 0.082005695
0003c0 47 62 53 3d 0e e7 07 3b ae 60 56 bd e9 4b 2c 3d
       0.051607396 0.0020737085 -0.052338295 0.04206458
0003d0 03 b5 1e bd 3a a6 15 bb 81 73 7a bb 48 4a 94 bd
       -0.038746845 -0.0022834674 -0.0038215818 -0.072407305
0003e0 d6 17 40 bd 3d 25 ac 3d 6c 5d e2 bc 8c 95 80 bd
       -0.04689773 0.0840554 -0.027632438 -0.06278524
0003f0 40 5f 54 3d 2f dc 04 3e f7 fb 3d 3d a0 e3 a8 bd
       0.05184865 0.12974618 0.04638287 -0.08246541

final_CNN/conv_layer_3/Conv2D f4 [128, 3, 3, 64]
000000 dd 3c 6e bc 30 6f 97 bd f5 0c 85 bd 73 43 a2 bc
       -0.014540878 -0.07394254 -0.06496612 -0.019807553
000010 12 66 ef bd 90 46 21 3d bc 71 37 bd 10 18 70 3d
       -0.1168939 0.039373934 -0.0447862 0.058616698
000020 4a a8 0c ba a8 22 aa 3d 87 dc bb bd e7 c6 81 bd
       -0.0005365653 0.083073914 -0.09172922 -0.06336766
000030 ec e0 16 bc ce d8 54 3d 0c 06 91 bd 49 56 a2 3c
       -0.009208899 0.051964574 -0.070812315 0.019816535
000040 69 3e 91 3d cf 0c 88 bd 51 0a 4d bd de 58 b3 bd
       0.07091982 -0.06643068 -0.050058667 -0.087571844
000050 77 7a e1 3d 11 7a 83 bd 88 da 2c be 62 6b a3 3c
       0.110096864 -0.06419767 -0.16880238 0.019948665
000060 2e d8 21 bd 89 4f b1 bc b3 89 c0 bc 6b 7e d7 3b
       -0.039512806 -0.02164437 -0.02350316 0.0065763495
000070 79 4b d3 bc 76 ee 4f 3c 4d 16 a2 3d f0 d5 98 bc
       -0.025792824 0.012691131 0.0791441 -0.0186567
000080 a5 94 8f bc d6 90 d7 bd 56 86 82 bd c6 65 9e 3d
       -0.017526934 -0.10525672 -0.06373279 0.077342555
000090 c5 50 11 3d b6 04 b3 ba 5b cf 8e 3d 7b d8 d2 3c
       0.03547742 -0.001365802 0.06973144 0.025737992
0000a0 5a 21 d6 3c ef 60 5c bd a7 83 09 3e 41 83 06 3c
       0.02613895 -0.05380338 0.13429128 0.008210004
0000b0 93 4d 71 bd fa e7 a1 3c 7e 58 8e 3d 21 05 90 bc
       -0.05891187 0.019763935 0.06950472 -0.01758057
0000c0 db 16 4c 3d ad 40 14 3d 18 48 aa bd bd 9b 73 bd
       0.049826484 0.036194492 -0.08314532 -0.059474695
0000d0 3c 87 47 3d b9 24 d9 3d 36 ed 3b bb 6c fc ac bd
       0.048712954 0.106027074 -0.0028675324 -0.08446583
0000e0 51 8b 4c 3c cd 9b dd bc 01 05 cf bd d7 df 0b 3d
       0.0124843875 -0.02705183 -0.10108376 0.034149017
0000f0 17 24 0f bd 3b 68 a5 bd 43 b4 2b bd ff 4a 8d 3d
       -0.034946527 -0.08076521 -0.041919958 0.0689907
000100 b1 f6 da 3c 51 b0 a1 bc 39 4a b7 3d 4a 6e ba 3d
       0.02672896 -0.019737395 0.08949704 0.09103067
000110 8a 46 a3 bd 94 b0 75 bd 36 a0 b2 bd ff 29 13 3d
       -0.07972439 -0.05998285 -0.08721964 0.035928722
000120 55 68 f7 bd b1 85 9b 3c 50 d5 0e be c1 3d a8 bd
       -0.12080447 0.018984647 -0.1394856 -0.082149036
000130 f1 f8 c4 bd db 82 4f bd 91 55 fb bc 4b 03 13 bb
       -0.09617794 -0.050661903 -0.03068045 -0.0022432383
000140 9d c2 30 bc cf 2a c5 bb 98 28 dd bc 9b 45 06 bc
       -0.010788587 -0.006017066 -0.026996896 -0.008195306
000150 27 29 41 bd aa 19 f2 bd 65 d6 3f bb ff 08 00 bd
       -0.047158387 -0.11821301 -0.0029272076 -0.03125858
000160 17 9d cd bc 81 06 b3 bc d2 f8 75 bd 95 e2 0a bd
       -0.02509932 -0.021853687 -0.060051747 -0.03390749
000170 61 8c 5b 3d a1 73 4e 3a 59 e3 67 bd 59 fa 9a 3c
       0.053600673 0.00078755064 -0.0566133 0.018918203
000180 ed 35 02 be 63 39 a4 ba da 72 32 3d a5 88 db 3d
       -0.12715884 -0.001252931 0.043566562 0.10719422
000190 2c 36 45 3c 1e 11 eb 3c 72 94 a0 bc b6 90 ad bc
       0.012036841 0.028694686 -0.019602034 -0.021187168
0001a0 f1 34 03 bd ad 20 ca bd 6a 9f d2 3d fb 97 4a bd
       -0.03203291 -0.09869514 0.10284312 -0.049461346
0001b0 86 b3 10 bd 4e a9 54 bc 6e c1 3f bd 7f c9 b1 bd
       -0.035327457 -0.0129798185 -0.04681533 -0.086810105
0001c0 cc 4b 3f bd 2f 51 37 bc a0 bf 65 bd 8d b6 95 3d
       -0.046703145 -0.011188789 -0.05609095 0.073102094
0001d0 db 1f 9f bb 45 88 56 3c 38 9b a5 bd a0 8f 4d 3b
       -0.0048560924 0.013094013 -0.08086246 0.0031366125
0001e0 4f 07 ba bc 22 f9 b2 bd 2e c1 da bd 58 b1 fd bd
       -0.022708563 -0.087389246 -0.10681377 -0.12387341
0001f0 b5 b1 00 bd 76 87 85 3c 0e d1 e7 bd 3a 26 e3 3b
       -0.031419475 0.016299944 -0.11319171 0.006932047
000200 bf f0 15 be e6 02 74 bc 23 82 1b bd c8 64 24 bd
       -0.14642619 -0.014893269 -0.037965905 -0.040135175
000210 7f fc 6d bd 61 8d 13 be 60 54 35 bd e2 f5 a8 3d
       -0.058102127 -0.144094 -0.04426992 0.082500234
000220 89 df be bd dd fb 9d 3d f8 23 84 3c 56 75 16 be
       -0.0931998 0.07714055 0.016130432 -0.14693198
000230 93 67 94 bd 9c 28 84 bd 57 b8 95 bc 6a 67 71 bd
       -0.07246318 -0.06453058 -0.018276377 -0.058936514
000240 93 e7 dc 3d 47 6c 0b bb 97 31 ef bd e1 1d b9 bc
       0.10786357 -0.0021274255 -0.116793804 -0.022597255
000250 72 68 47 3d ef 92 a1 3c 47 aa d5 bd 20 8e fe bb
       0.04868359 0.019723384 -0.104328685 -0.0077684075
000260 36 44 93 3d 41 3f 07 be 97 00 73 ba 49 7b 2f be
       0.071907446 -0.13207723 -0.0009269802 -0.17136873
000270 44 6f bc 3c 0e fc 5b 3d f5 2d 93 3b 12 d6 e2 bd
       0.023002274 0.053707175 0.0044915625 -0.11075987
000280 5c a1 9d bd f5 75 03 bc 3d 69 39 bd 92 46 02 3d
       -0.076967925 -0.008023729 -0.04526638 0.031805582
000290 ef 80 3a 3d eb 8d 0f be 70 7c b1 bd 21 ae b5 bd
       0.045533117 -0.14018981 -0.08666313 -0.08871103
0002a0 94 2a 54 bd c6 61 7c bd 29 bc 24 3d fa 11 54 bd
       -0.05179842 -0.06161668 0.040218506 -0.051774956
0002b0 e9 94 e3 bd 5d da 4d 3d bf 52 f3 3c 55 f8 00 bd
       -0.11112387 0.050257076 0.029702542 -0.031486828
0002c0 f0 79 8b bc 5b 10 46 be 79 f8 36 bd 20 7f 0f bc
       -0.017025918 -0.19342177 -0.044670556 -0.008758336
0002d0 23 81 2a 3d 69 fe 64 bc 3d 5b 59 3d 3f 79 19 bd
       0.04162706 -0.013976672 0.053065527 -0.037469145
0002e0 7a 18 1c 3d ac 2d d4 bc 9d bf 90 bd 93 df fc bd
       0.03810928 -0.025900684 -0.07067797 -0.12347331
0002f0 0e 77 af bd 54 30 c5 3c 7c fa a5 bd 6c 5a b8 3d
       -0.0856763 0.024070896 -0.08104417 0.090016216
000300 05 87 76 3c 30 87 91 bc 45 80 f6 bc ef 8f 7c bd
       0.01504684 -0.017764658 -0.03009046 -0.061660703
000310 23 b7 32 bc 3f b9 84 bb be 50 65 bc 15 e4 80 bc
       -0.010907921 -0.0040504034 -0.013996301 -0.015733758
000320 6a 0d 1f 3c a9 9d 81 bc 3e de 1b 3d 2d 45 30 3c
       0.009707788 -0.015822249 0.038053744 0.01075868
000330 b6 67 77 3d f6 98 1f bd b3 5b fb 3c 08 0c 7d bb
       0.06040164 -0.038964234 0.030683374 -0.0038611908
000340 29 66 2d 3d 5a 2a e4 3c 66 34 15 bd e5 a2 4f bd
       0.042333756 0.027852226 -0.036426924 -0.050692458
000350 b6 f9 fe 3c 7e f0 96 bd f3 5b 1a 3d e2 e0 c6 3a
       0.03112493 -0.07370089 0.037685346 0.0015173221
000360 e9 93 12 bd 15 92 45 bd 36 3d 8e bc d0 18 29 bc
       -0.03578559 -0.048235018 -0.017363172 -0.010320857
000370 a4 14 20 3d e8 16 18 bd 47 5f 2f bd 39 1c 6d 3d
       0.039082184 -0.03713122 -0.042815473 0.057888243
000380 1a 3e 43 3b df 9a 29 bd b4 1e 9c bc 3d f7 58 bd
       0.0029791654 -0.041407462 -0.01905761 -0.05297016
000390 6f 58 11 3d 1c b7 16 3d 9f 0a 9a 3d dd 62 db bc
       0.035484727 0.03679572 0.07521557 -0.02678054
0003a0 8d ec 75 3d 73 f1 fd bc 50 83 18 bd 6b e3 45 bc
       0.060040046 -0.030998921 -0.037234604 -0.012078146
0003b0 eb 94 a8 bd c4 00 61 bd bb bb ad bc 05 e4 b6 3c
       -0.08231529 -0.05493237 -0.02120768 0.022325525
0003c0 50 81 96 bd fe be 90 3b 1d 4d dd 3c 09 91 04 3d
       -0.07348883 0.0044172993 0.02701431 0.03236488
0003d0 f9 1f c5 bc 93 db ef bd e5 30 b8 3d f3 73 23 bd
       -0.024063097 -0.11711802 0.08993701 -0.0399055
0003e0 15 21 0f bd 21 7f 61 3c 51 67 38 bd d5 91 99 3c
       -0.03494366 0.01376322 -0.045020405 0.018746296
0003f0 53 d3 8e 3d 89 54 91 bd 07 64 71 3c 9f ae 05 3d
       0.06973901 -0.07096202 0.014733321 0.032637235

final_CNN/dense/BiasAdd/ReadVariableOp f4 [64]
000000 74 8d e1 bb 9c d0 95 3c 51 ec f5 3c dd 3e f6 3c
       -0.0068833176 0.01828795 0.030019911 0.030059272
000010 15 ca 26 bb 70 2b 97 bc d2 02 10 bd 26 ba 52 bc
       -0.002545004 -0.01845333 -0.03515894 -0.012861764
000020 81 66 e3 3b 9c 99 dd 3c bd af cf 3c 3e 07 db 3c
       0.0069397097 0.027050786 0.025352353 0.026736852
000030 fc d3 0f bb e2 4b 22 3d 70 1b 92 3b 68 16 f3 bc
       -0.002194642 0.03962315 0.004458837 -0.02967377
000040 65 21 11 3d 2c 7f 23 3d db 41 2e bd c9 57 58 bc
       0.035432238 0.039916202 -0.042543273 -0.013204523
000050 50 15 93 bc b3 ae 33 bc aa e9 e6 3c d7 f5 d7 3b
       -0.017954499 -0.0109669445 0.028187592 0.0065905857
000060 90 cd 92 bc 85 5b 34 bd d0 0d 7f bc 6c 61 02 3c
       -0.017920285 -0.044032592 -0.015567258 0.0079577975
000070 c9 37 35 bd 65 c9 e8 bc 5e 45 8f bb d7 c6 ca bc
       -0.044242654 -0.028416345 -0.004372283 -0.024753017
000080 98 d8 2d b9 a6 f0 7a bb 2a ff 85 3c 8b b5 05 3c
       -0.00016579253 -0.003829041 0.016357023 0.008160959
000090 ee 67 db bc 99 ff 16 3d 6e c4 56 bb aa 0c 21 3d
       -0.026782956 0.03686485 -0.003277089 0.039318718
0000a0 3d 93 65 3d 65 98 63 bc 80 50 7b 3c 0e 9f 15 3b
       0.05604862 -0.013891314 0.015339017 0.00228304
0000b0 37 1f e2 3a 93 ad b6 bc c5 e9 09 bd 8a 2c af bc
       0.0017251734 -0.022299564 -0.033670206 -0.021383543
0000c0 26 9b bb 3c 07 e9 92 3c a5 d3 ad bc b3 41 0f 3d
       0.022901129 0.017933382 -0.021219084 0.034974765
0000d0 32 4f 96 3c 2c d8 90 bc 48 b7 64 3d 52 5d a4 3c
       0.01834831 -0.017681204 0.055838853 0.02006403
0000e0 f8 01 13 3c 8d 9f 26 3d 84 fe 58 bc 33 ce d0 bc
       0.008972637 0.040679503 -0.013244275 -0.025488948
0000f0 7d ad 92 bc 12 a5 18 bc 82 13 24 3d c7 ae 96 3c
       -0.017904991 -0.0093167 0.040057667 0.018393887

final_CNN/output_layer/BiasAdd/ReadVariableOp f4 [10]
000000 a6 b5 29 bc 03 45 03 bd 58 b1 61 bd 81 e5 24 3d
       -0.01035825 -0.032048237 -0.05510077 0.040257934
000010 8e 06 2d bc 19 06 bb bc 34 5c 41 bd b3 44 1c bd
       -0.010560645 -0.022830056 -0.047207072 -0.038151454
000020 06 74 27 3d 45 e8 62 bc
       0.040882133 -0.013849323

final_CNN/dense/MatMul f4 [64, 1152]
000000 84 cc 06 bd 39 ba b5 3d 2e af 8a bd bd df 4e bd
       -0.032909885 0.0887341 -0.06771694 -0.050506342
000010 64 d4 20 bd 10 f6 5d bb bc d6 f0 bb 5f 9c 8f 3c
       -0.03926505 -0.0033868589 -0.007349817 0.017530618
000020 56 47 19 3d d9 8f a6 3c b0 52 8f 38 bb c1 1b 3b
       0.037421547 0.020332264 6.834173e-05 0.0023766595
000030 87 c9 8e bc 23 6c 67 bb ab f8 72 3d 0e 93 6f bd
       -0.01743008 -0.0035312257 0.05931918 -0.05848985
000040 73 be 82 3d 33 30 33 bc 64 a4 10 3d 33 fe e2 3d
       0.063839816 -0.010936785 0.035313025 0.11083641
000050 58 a4 a5 bc 2c 15 9c ba 64 5a 1f 3d 90 8c ae 3d
       -0.020219967 -0.0011908165 0.038904563 0.08522904
000060 1a 45 7d 3d 46 9d 5c bc 2a d5 ae bc f9 06 9a bc
       0.06183348 -0.013465231 -0.021341879 -0.018802153
000070 d2 7a 76 bd 09 f8 15 3d a4 25 1c bd 90 09 39 bd
       -0.060175724 0.036613498 -0.038121834 -0.045175135
000080 aa 8a d5 3d 91 f2 46 3d 28 68 d1 3d 4f 5a 6a bd
       0.10426839 0.048571173 0.10224944 -0.05721503
000090 ea 52 22 3d 2c fe 1c 3d f8 0a 79 3d ec 40 0e 3d
       0.039629854 0.038328335 0.060801476 0.034729883
0000a0 ad 80 f1 bc a3 a2 d2 3d fc 6d 4f 3c 78 12 b5 bc
       -0.029480303 0.10284927 0.0126605 -0.022103533
0000b0 ad 3d ba 3d bd 70 13 3b af 6c 5d bd 6f 26 87 3d
       0.09093795 0.0022497617 -0.054058727 0.065991275
0000c0 74 70 94 3d 9e 08 0c 3d 98 2b da bc c5 27 84 bd
       0.07248011 0.034187905 -0.026632115 -0.06452898
0000d0 b9 84 a3 bc cb 25 1f 3e 2f 8e 99 bd a8 7c ba 3d
       -0.019960748 0.1554176 -0.074978225 0.091058075
0000e0 9f 7b 00 3e da 65 c5 bc 9f e6 26 3d 77 ae 8b 3d
       0.12547158 -0.024096418 0.04074728 0.06820386
0000f0 1c 97 d0 bc 6f d8 d7 3d 86 9e a1 3b b2 56 f6 3d
       -0.02546268 0.10539328 0.0049322275 0.120282546
000100 3b f4 0f bd 28 82 76 bd 67 5f 4f bd f5 7f 69 3d
       -0.035145026 -0.06018272 -0.050628092 0.057006795
000110 fc ca a4 3c a9 29 5e bd 19 b1 e8 3d 1c c6 24 3c
       0.020116322 -0.05423895 0.11361904 0.010056999
000120 97 62 b4 3c 77 d7 2e 3d 06 60 11 3d 5a 94 8d bd
       0.022019668 0.042685952 0.035491966 -0.069130614
000130 c2 2c 21 bd 15 24 07 3d a6 7a 3b bd ea b9 98 3d
       -0.039349325 0.032993395 -0.045771264 0.07457335
000140 75 9a d5 3b a8 fb d8 3d ea 71 18 3d 78 d0 72 3d
       0.006518657 0.105948746 0.037218012 0.059280843
000150 4b 0b e1 bd 61 da 4b bd 11 8c 9c bd fe f1 0c 3d
       -0.10988482 -0.04976881 -0.07643903 0.03441047
000160 d6 fa 7a bd 0a fd c6 3c 3b 5e 8e 3d 8f 68 99 3b
       -0.061274372 0.02429058 0.06951567 0.004681654
000170 ef 0e 97 3c c2 87 98 3d 22 e1 d1 3d 76 06 ca bd
       0.018439738 0.07447769 0.10248019 -0.098645136
000180 7f e5 aa bd e6 69 52 3d d9 ec 91 3d f7 fd 56 3d
       -0.08344554 0.051370524 0.07125253 0.052488293
000190 8e cd d0 3d 92 21 ec 3c 8a 6d 88 ba cc fe 39 bd
       0.101954564 0.028824601 -0.0010408622 -0.04540901
0001a0 39 d7 64 3c 80 dc eb 3d 5e 87 dd bb de c0 26 3b
       0.013967329 0.115166664 -0.006760522 0.0025444548
0001b0 fc 0d 22 3c 34 c3 75 bd 2e b2 7f 3d a8 da f9 3b
       0.009891029 -0.060000613 0.062425785 0.007624943
0001c0 6d e1 87 3d 3c 70 dc 3d 5d b8 76 bd 3c a1 c8 3c
       0.066347934 0.107635945 -0.060234416 0.024490945
0001d0 0d d6 e4 3c 22 d1 54 3d 62 7f ab bb 58 d5 09 bd
       0.027934099 0.051957257 -0.005233691 -0.033650726
0001e0 92 27 02 bb 42 10 7e 3a 29 c0 90 3c cc ac f8 bb
       -0.0019860012 0.00096917537 0.017669754 -0.0075889584
0001f0 52 a4 8f 3c 61 1f 34 3d 2c 65 78 3d 5b e6 a3 bd
       0.017534409 0.043975238 0.06064336 -0.08002921
000200 f3 f5 9d bd ec 1f 47 3d 7f a7 b5 bc bc d9 5f bd
       -0.07712927 0.048614427 -0.022174595 -0.054651007
000210 2e e4 ad 3d 14 76 a4 3c b3 23 00 bd d9 66 55 bd
       0.084907874 0.020075835 -0.031284045 -0.052100036
000220 95 43 58 bc e6 52 89 3d 62 00 15 3d 0e 2e f0 3c
       -0.013199707 0.06705265 0.03637732 0.029318836
000230 5c 7d 21 3d 9b 2a 05 3d 13 0a 9d bb f8 7e 00 bd
       0.039426193 0.032511335 -0.0047924607 -0.031371087
000240 5e ad 87 3d db 70 23 3d 4d ba 23 3d 85 3d 24 3d
       0.06624864 0.03990255 0.039972592 0.040097732
000250 9a c6 cb 3c c5 c8 31 3c 43 e2 25 3c e9 2a 5c 3d
       0.024874974 0.01085109 0.010124746 0.05375186
000260 41 92 7a 3d 76 c7 da 3d 51 0c 52 3b 1e 6e 5e bd
       0.061174635 0.106825754 0.0032050798 -0.054304235
000270 b9 0c d8 bd 94 bd 9e bd 96 3f 9a bd ac 00 c9 3d
       -0.10549302 -0.07751003 -0.07531659 0.09814581
000280 6a db a3 3d 4e f6 0b 3e b0 3e 89 3c c2 34 21 3d
       0.08000834 0.13668177 0.016753525 0.039356954
000290 3f c6 76 3b 86 3b 18 bd ae 7b 30 3d fc f6 5c bc
       0.0037654785 -0.03716614 0.0430867 -0.01348662
0002a0 1c ec b5 bd 92 ad a8 bb 60 de 73 3d 89 77 dd 3d
       -0.08882925 -0.0051476443 0.059538245 0.10813815
0002b0 3f bd 85 3d 5b 1d b8 3d f6 ab 2b 3c fc bd 81 bd
       0.065302365 0.08989974 0.01047801 -0.06335065
0002c0 67 77 b1 3d 68 56 9f bd ad c2 69 3d 3e ab 13 3d
       0.08665352 -0.077801526 0.057070423 0.03605198
0002d0 82 05 8c 3c a8 79 72 bd 97 6e 01 bc 21 27 f2 bc
       0.01709247 -0.05919805 -0.007899902 -0.029559674
0002e0 2d 87 f7 3d 99 23 70 3d bf c9 68 bd 64 e4 76 3d
       0.120863296 0.0586277 -0.056833025 0.060276404
0002f0 45 19 58 bd 6b cc 1c 3e 01 e7 80 bd 37 ec 99 3d
       -0.052758474 0.15312354 -0.062940605 0.075157575
000300 f7 b2 3e 3c b0 a9 ea bd f8 c5 79 3c 92 3b e3 bb
       0.011639348 -0.114581466 0.015244953 -0.0069345916
000310 ec b4 a8 bd 24 c9 78 3d e6 14 24 3d fb 4f 65 3d
       -0.08237633 0.060738698 0.040058993 0.05598448
000320 07 0b 4d 3c 84 c0 93 bd 8d b1 72 3d f7 c5 84 bd
       0.012514836 -0.07214454 0.059251357 -0.06483071
000330 44 2f 2e bb 4f c7 88 3d d7 c9 42 bd 39 c7 04 3b
       -0.0026578465 0.0667864 -0.04755577 0.0020260348
000340 22 b7 a4 bb ca eb 0c 3e a8 81 e9 3c a9 15 19 3d
       -0.005026714 0.13761821 0.028504208 0.037374172
000350 63 80 c9 3c 68 99 98 3d 46 3b 99 bd 5b 0b 1e 3d
       0.024597352 0.07451135 -0.07482009 0.03858505
000360 2c e3 5b bd 33 e9 45 bb fc 03 15 3d 57 b4 ed bc
       -0.053683445 -0.0030198812 0.036380753 -0.029016657
000370 27 16 98 3d c9 c3 c8 bd 90 07 da bc f7 d7 68 3d
       0.074261 -0.09802968 -0.026614934 0.056846585
000380 66 e5 14 3c f5 e2 ab 3d e3 a8 4c bd b7 16 9b 3d
       0.009087896 0.08392898 -0.04996575 0.07572692
000390 1f 6b 12 3e d9 e9 bc 3c a8 ea 2d 3b 64 c4 88 bd
       0.14298676 0.023060726 0.002653757 -0.066780835
0003a0 7a 68 db 3d bc 36 a9 3a bf b7 40 3c 4c c9 27 3d
       0.10713287 0.0012909989 0.0117625585 0.040963456
0003b0 c5 a3 98 3d 85 dc c8 3d 12 28 8f 3d ea c6 17 bd
       0.074531116 0.09807686 0.06990065 -0.037054934
0003c0 54 da 77 3c 33 55 6a 3d ac 8a c4 3d 7c 09 fd 3b
       0.015127737 0.05721016 0.09596762 0.007722078
0003d0 1f 8b c6 bb 51 85 92 bc 75 9b f2 bc 9c 12 6c 3c
       -0.006059065 -0.017885836 -0.029615143 0.014408734
0003e0 5b 80 b8 bc d1 d3 16 3c 96 30 84 3d 34 59 bb bc
       -0.022522142 0.009205774 0.064545795 -0.022869684
0003f0 14 7d 71 bd ba c1 bc bc 5f 39 a8 3b c9 b3 83 3d
       -0.058957174 -0.023041595 0.0051337923 0.06430776

final_CNN/output_layer/MatMul f4 [10, 64]
000000 45 58 86 be d2 c2 d7 3d 73 d6 c8 be 05 7b 38 be
       -0.2623922 0.10535206 -0.39226112 -0.18015678
000010 f4 d7 78 bc 45 ec a8 3e d9 f6 b2 be 6c 49 87 be
       -0.015188206 0.3299276 -0.34953955 -0.26423204
000020 26 d2 77 be 04 76 67 bd 91 88 a3 3e 15 ca e8 bd
       -0.24201259 -0.056509033 0.3194013 -0.11366669
000030 5c 39 38 bb 94 2d b1 be ab ed ab be 3e 57 a7 3e
       -0.002811036 -0.34605086 -0.33579764 0.32683748
000040 b4 8d 5e be 9a 38 4a 3d f0 82 f0 bd 3e 65 9e bd
       -0.21733743 0.049370386 -0.11743724 -0.07734154
000050 8e 08 95 bc a4 95 8a bd 3b 41 a6 3a f5 d2 8b be
       -0.018192556 -0.06766823 0.0012684235 -0.27309385
000060 c9 13 6c be fa b0 89 be 0d a8 78 3e 6f 7c 84 3e
       -0.23054422 -0.26892835 0.24282856 0.25876185
000070 49 4c f6 3d 88 02 89 3e f0 06 40 be 17 bd 5f be
       0.12026269 0.26759744 -0.18752646 -0.21849476
000080 6f 6a 00 bd e8 85 bf bd af cc a0 be 69 2e 17 be
       -0.031351503 -0.093517125 -0.3140616 -0.14763798
000090 ff 92 cb bd 7b 30 4f 3d 1d fb 20 3e 9f cd 7e 3e
       -0.09940147 0.050583344 0.15720792 0.24883126
0000a0 ec 5d ca be 78 3b 76 3d b1 47 ca 3d 0f af c4 bd
       -0.39524782 0.060115308 0.09876955 -0.09603702
0000b0 9f b8 0f 3e 11 bb 06 3e c9 58 a3 be 40 67 33 be
       0.14035271 0.13157298 -0.31903675 -0.17519855
0000c0 66 47 ff be 60 df 1a be b3 bc 84 3e 93 61 a3 be
       -0.4985916 -0.15124273 0.25925216 -0.3191038
0000d0 c9 ba 0a be c6 e3 e6 3c 83 80 23 be e2 cb 82 be
       -0.13547815 0.028184783 -0.15966992 -0.25546175
0000e0 6a 11 00 bf 6a e5 d7 bd 7f a9 21 be 33 d8 0a be
       -0.5002657 -0.10541804 -0.15787314 -0.13559036
0000f0 da b9 cd be 30 7f 7a bd cf c4 89 bd 26 86 bc bd
       -0.40180856 -0.06115645 -0.067269914 -0.09205274
000100 fa d5 c7 3d 00 87 87 3e 94 20 e9 bd 56 f0 36 be
       0.0975761 0.26470184 -0.11383167 -0.17865118
000110 b2 61 8e be 17 07 23 3e 47 99 af be 14 e4 44 3e
       -0.2780891 0.15920673 -0.3429663 0.1922763
000120 97 43 03 be 29 4b 26 3e ae bd 84 be 22 ef 91 be
       -0.12818752 0.16239609 -0.25925964 -0.28502756
000130 12 db 84 be f7 f1 a9 3d ec 3c 30 be f5 ac de bc
       -0.25948387 0.08298104 -0.1721074 -0.027182082
000140 c5 72 ac 3d a2 52 87 3e be 2c bd 3d 3a 0f 34 be
       0.08420328 0.2643023 0.092370495 -0.17583933
000150 d7 6c a6 bc 50 03 67 be af 96 84 bd 32 62 74 3e
       -0.02031557 -0.22559857 -0.06474053 0.23865584
000160 c8 3a 03 bd d0 c4 e0 be 41 fd c5 be 57 8f d3 3d
       -0.03203848 -0.43900156 -0.3866978 0.10330074
000170 24 83 49 be 94 94 bb be 9c e6 04 bd 6b 33 5d be
       -0.19678932 -0.36636794 -0.03244649 -0.21601646
000180 4c 43 c6 be a3 b0 1f be 36 2e 4b be 82 f5 89 3e
       -0.38723218 -0.15594725 -0.19841847 0.2694512
000190 ae 70 66 3e 23 be 12 3e 93 2d eb bd d9 85 58 3d
       0.22503921 0.14330344 -0.11483302 0.052862022
0001a0 32 ed bf bc a9 65 11 3d 1b 5d 84 3e 65 7a 68 be
       -0.023428533 0.03549734 0.25852284 -0.2270294
0001b0 5b b5 3b bd 7a 39 a3 bd 23 51 77 3d cd 92 93 3e
       -0.04582725 -0.07969947 0.060380112 0.28822938
0001c0 94 d8 2a 3c 9a b8 cc be df 0a a9 be 6a a5 8f be
       0.010427613 -0.3998459 -0.33016106 -0.28055888
0001d0 56 29 99 be f2 54 86 be b0 57 af bd 1f c5 76 3e
       -0.2991435 -0.26236683 -0.08561647 0.24098633
0001e0 0f 85 5d 3e 16 96 2f be 0e 52 07 3e 41 3a 10 bd
       0.21632789 -0.17147097 0.13214895 -0.035211805
0001f0 86 8e 90 3e 87 82 29 3e f6 57 7c be d3 1b 19 be
       0.28233737 0.16553698 -0.2464293 -0.1495202
000200 02 c2 8e 3e ab 5f 04 be 86 24 28 3e d5 5e 99 3d
       0.2788239 -0.1292712 0.16420183 0.07488791
000210 63 3f 68 3e 7e fe 95 be 9e b5 3d 3e ef 32 fa bc
       0.2268043 -0.29295725 0.18526313 -0.030541865
000220 24 2c b8 be 67 b0 8e be fd fa af be d7 aa 2d be
       -0.35971177 -0.2786896 -0.34371176 -0.16959701
000230 f1 15 63 3e dc 60 11 3b 04 77 e0 bd d7 30 c0 bc
       0.22176339 0.0022182977 -0.109602004 -0.023460789
000240 ef e9 f9 bd 8e 25 bd bd 6f 52 87 3d 2d 97 5d be
       -0.122028224 -0.092356786 0.0660752 -0.216397
000250 13 2f ab 3e b6 2a 33 3e b0 3d 98 3e af 5d 98 be
       0.33434352 0.17496762 0.29734564 -0.29758975
000260 90 14 5e 3c 39 d5 89 bc 2b 72 8e be 3d 60 9a 3e
       0.013554707 -0.016825305 -0.27821478 0.3015155
000270 14 96 b9 3d fc 36 a1 bd eb 9f cb 3c b2 75 71 bd
       0.09061828 -0.078718156 0.024856528 -0.058950134
000280 0a 54 f8 3d 15 02 28 3e 92 0d 57 3e f6 7b c9 be
       0.12125404 0.16407044 0.2100127 -0.39352387
000290 3e da c4 be e2 17 73 be 5e 1d ff bd 0e d0 97 bc
       -0.38447756 -0.2373958 -0.12456773 -0.018531825
0002a0 0b 6b d3 be ae 1d 98 bc 21 6a 7f be 20 f9 4a be
       -0.41292605 -0.01856884 -0.24942829 -0.19821596
0002b0 2b 92 d4 bd 11 38 c0 be 99 77 37 3e 15 8b 9c 3a
       -0.10379442 -0.37542775 0.17916717 0.0011943305
0002c0 9e 3f d9 be b0 ca b9 be 6f 05 ad be c7 22 b1 be
       -0.4243135 -0.3628745 -0.33793208 -0.34596846
0002d0 e6 47 92 be fa e6 b3 bc dc 2f c1 bd d8 39 53 bc
       -0.2857048 -0.021960724 -0.094329566 -0.012892209
0002e0 21 8d 4f 3e 75 36 c3 3d b9 04 44 be 3e ed fa 3d
       0.2026868 0.09531871 -0.19142427 0.122522816
0002f0 28 75 08 bf f0 7c 0f bd 0c 2c bd be 2f 7e 55 bd
       -0.53303766 -0.03503126 -0.36947668 -0.05212229
000300 ea 1d 8e be 0f 16 a9 be f7 70 d8 be d7 95 23 3e
       -0.27757198 -0.33024642 -0.42273685 0.15975128
000310 9e 7b 88 be e2 63 86 be 8a 56 bb be e9 d6 09 3c
       -0.26656812 -0.2624808 -0.36589462 0.008413055
000320 81 1f b1 3e e3 28 ca be 39 41 ca be 47 b2 80 3e
       0.34594348 -0.3948432 -0.39502886 0.25136015
000330 b5 6e 18 be ed 0d 82 3d 70 45 8c be 8a 11 80 be
       -0.14885981 0.063503124 -0.27396727 -0.2501338
000340 27 11 93 3e 4c 96 a8 3e ba 9d d2 be 34 d7 bd be
       0.28724024 0.32927167 -0.4113596 -0.3707825
000350 5f ee 2c 3d ca 16 fb bd 27 1a 9f 3e 42 30 82 bd
       0.042219516 -0.12260206 0.3107464 -0.06356861
000360 96 8f c6 be 7c 67 36 bd dc 87 8e 3d 2f af c5 bc
       -0.38781422 -0.044532284 0.06959507 -0.024131386
000370 a6 38 3d be 42 72 a2 bd b0 ff 2a 3e 4a 94 8d be
       -0.18478641 -0.07931949 0.166991 -0.27652198
000380 1a d0 f4 3d 1f 1d 41 be ac 90 6f 3e 95 b6 b5 3e
       0.11953755 -0.18858765 0.23395032 0.35490862
000390 b7 28 db be ab e6 8a 3e af 86 0e 3e 3d 2c 4a 3e
       -0.428045 0.2712911 0.13918565 0.19743438
0003a0 97 ea 1f be ac 92 6b 3e c7 5e 21 bd 5f 95 15 3e
       -0.15616833 0.2300517 -0.039397027 0.14607762
0003b0 be 60 f8 bc 00 c8 26 bd 32 df c0 be 62 f9 d5 be
       -0.030319568 -0.04071808 -0.37670285 -0.41791826
0003c0 2e ad ee 39 e4 74 68 be 7c 6c 87 be 57 36 2d be
       0.00045523926 -0.2270084 -0.26449955 -0.1691526
0003d0 9a 46 1f 3e d8 b8 f2 bd 97 e1 ec 3d cd cd b9 3d
       0.15554276 -0.118516624 0.11566465 0.090724565
0003e0 9a f1 ef 3d 9d 2b 8b 3e e1 02 0c bb d1 b5 d9 be
       0.11716004 0.27181712 -0.002136402 -0.42521527
0003f0 06 61 0e bf d6 4c 79 3d 0b 62 f0 bb be 6f 8f 3e
       -0.55616796 0.060864292 -0.0073359064 0.2801494
